panna/tests/data/evaluation/test_1/saved_networks/species_0_layer_2_weights_12x6.npy (npy, 416 bytes, 1 tensors)

array f4 [12, 6]
000000 7f c0 86 bc b5 ff 81 3c a9 28 72 3c 27 c0 3e 3e
       -0.016449211 0.015869 0.014780202 0.18627988
000010 e1 df 45 be 44 08 0d be 8b 1e 08 be 0f 56 27 3e
       -0.19323684 -0.13772684 -0.13292901 0.16341422
000020 7c 63 d5 3d ab b9 a8 3d 16 b6 13 be a4 89 24 3d
       0.10419366 0.08238538 -0.14424929 0.040170327
000030 f9 25 1a be 6b e1 12 3d 63 9d ce 3c ac 84 f8 3d
       -0.15053548 0.035859507 0.025221532 0.1213468
000040 9f e6 32 3c 68 17 e8 3d bc e8 07 3e 3c c9 d8 bd
       0.010919242 0.113325894 0.13272375 -0.105852574
000050 76 ca 87 bd 06 78 a8 3e b0 ee 1a be f2 2b d4 3d
       -0.06630413 0.3290407 -0.15130115 0.103599444
000060 22 e3 bb bc 40 37 0f bd 9c 45 90 bd 38 c7 73 3e
       -0.022935454 -0.0349648 -0.07044527 0.23806465
000070 da 33 f5 3d c3 e3 91 3d 7d 6a e8 bd 40 69 59 3d
       0.119727805 0.0712352 -0.11348436 0.05307889
000080 85 9e 22 3d 92 ba 85 3e 16 03 41 be a1 a3 66 bd
       0.039701957 0.26118904 -0.18848833 -0.056308392
000090 68 bc 0c be 06 30 3e 3c 20 f9 2c 3e 8d 8b c7 3d
       -0.13743746 0.011608129 0.16891909 0.09743414
0000a0 ec f0 a8 bd 82 52 20 3d 4a 05 2d 3d 35 32 bd 3d
       -0.08249077 0.039141186 0.042241372 0.09238092
0000b0 71 65 3f 3d 88 7e 8c 3e 5f 44 01 be 5f d5 dd 3d
       0.0467276 0.27440286 -0.12623738 0.10831713
0000c0 ed ce 2b 3d 79 88 0d 3e 67 e6 21 bd d9 e5 0f 3e
       0.041945387 0.13821591 -0.03952637 0.14052524
0000d0 d6 a0 4f bd 30 87 5f 3b 42 b3 32 be 6a f3 52 bd
       -0.050690494 0.0034107678 -0.17451194 -0.05150167
0000e0 bc cc 40 3d c2 48 c6 3d 64 0e 14 3e 41 19 96 3d
       0.04707025 0.09681846 0.14458615 0.073290356
0000f0 68 68 a7 bd ba 76 d1 bd 7b ba 56 3b b6 ad a7 3e
       -0.08174211 -0.102277234 0.003276496 0.32749718
000100 da 05 05 bd 40 8c 33 3e 75 2b f7 bd dc d5 26 be
       -0.032476284 0.1753397 -0.12068836 -0.16292518
000110 a2 89 d8 bd 2d 50 a8 3e a0 0d a9 be 6f 1c b4 bd
       -0.105731264 0.3287367 -0.33018208 -0.08794486
