panna/tests/data/evaluation/test_1/saved_networks/species_3_layer_2_weights_12x6.npy (npy, 416 bytes, 1 tensors)

array f4 [12, 6]
000000 3d 7c 98 bd 61 dc 72 3e 85 ff 9b 3e a2 d8 4b 3e
       -0.074455716 0.2371688 0.30468383 0.19906858
000010 f0 e9 96 bd e6 66 07 3e 5a 85 7c be 67 3c 23 3e
       -0.07368839 0.13222846 -0.24660245 0.1594101
000020 a8 a3 47 be 73 ec c0 3e 5a 7d e0 3d 31 52 da 3d
       -0.19496024 0.37680396 0.10961409 0.10660208
000030 44 a1 78 be 0b bd 3c 3e fb 9f f4 bd 3b c8 90 3d
       -0.24280268 0.18431489 -0.11944576 0.07069441
000040 68 aa b9 3d 45 a8 2e be ab aa 55 be c0 5a 84 3e
       0.090657055 -0.17056377 -0.20865886 0.25850487
000050 ff db 4d 3d b4 5c 54 3e 77 70 e3 bd 22 4f 6e bd
       0.050258633 0.20738488 -0.11105435 -0.058180936
000060 f8 47 6f be 4b 29 32 3e 7b 5c bc 3e f7 6b cd 3d
       -0.23367298 0.17398565 0.36789307 0.10030358
000070 35 13 27 bd 17 ff fb bd 13 05 68 be 22 b3 a3 3e
       -0.0407898 -0.12304514 -0.22658186 0.31972605
000080 f1 fe d9 bd b4 e6 3d 3e a9 71 d9 3b 8a 12 5c bb
       -0.10644329 0.18545038 0.006635864 -0.0033580386
000090 86 86 9b be 29 18 af 3e 55 9e 5c bd a9 e3 ab 3e
       -0.3037607 0.3419812 -0.053861935 0.33572128
0000a0 4a 16 04 bc 7a e9 f4 3d 28 0a 19 be a8 9e 91 3e
       -0.008061955 0.119585946 -0.1494528 0.28441358
0000b0 f7 76 68 3d 4b fa 1e 3e ec aa d4 bb f0 52 4f bd
       0.05675408 0.15525167 -0.006490102 -0.050616205
0000c0 a9 11 aa be 15 8c f6 3d ca bc 29 be 6c b2 a3 3e
       -0.332166 0.12038437 -0.16575924 0.31972063
0000d0 81 b0 39 3d 42 96 c9 bd ae ae 66 be 43 93 18 3e
       0.045334343 -0.098431125 -0.22527573 0.14899926
0000e0 27 46 f4 3e fa 44 46 3e 23 bd 4f bd cc 19 61 3d
       0.47709772 0.1936225 -0.050717484 0.054956242
0000f0 85 87 9a be 86 ca 19 3e 16 ab 56 3e 0e bd aa 3e
       -0.30181518 0.15018663 0.20963702 0.33347362
000100 2b d2 24 be 81 87 c2 3d f0 60 58 be 69 e7 b1 3e
       -0.16095798 0.094985016 -0.21130729 0.34746864
000110 d6 3a 71 bc bb 7b 8d 3e 48 be 74 3d 8a c1 75 3d
       -0.0147235 0.2763346 0.05975178 0.059999026
