panna/tests/data/evaluation/test_1/saved_networks/species_0_layer_1_weights_384x12.npy (npy, 18560 bytes, 1 tensors)

array f4 [384, 12]
000000 18 99 93 3c 66 01 a6 3d ea 8a be bd 4f b3 3b bd
       0.018017337 0.081057355 -0.093038395 -0.0458253
000010 50 69 c7 3d f0 d0 be 3d 32 b2 08 bd c7 af 3b bb
       0.09736884 0.093171954 -0.033373065 -0.0028638707
000020 8f 56 be 3c 92 51 3a be 76 be a9 3d 71 74 82 3d
       0.023234634 -0.18195179 0.08288281 0.06369866
000030 ae 3b 90 be 36 ee 93 3e 46 2f cc be 48 b1 37 bf
       -0.28170532 0.28892678 -0.39879817 -0.71754885
000040 e4 1b c9 3e 76 0d 30 3f b1 dc c1 be 5d 7c 8b bd
       0.3927909 0.6877054 -0.37863687 -0.0681083
000050 ac f9 b7 3e ef 28 94 be 88 6a 9c 3e 71 1e 0f 3f
       0.35932672 -0.2893748 0.30550027 0.55905825
000060 55 27 82 be 3f f8 bd 3e f7 ba 9d be bf 3b 0f bf
       -0.25420633 0.3710346 -0.30806705 -0.5595054
000070 35 67 c8 3e 7a 4a f1 3e 97 34 aa be 19 78 be bc
       0.3914124 0.47127134 -0.33243248 -0.023250626
000080 fb 83 70 3e 01 e8 be be de 74 7a 3e b3 6b e7 3e
       0.23487847 -0.3728638 0.24458644 0.45199355
000090 be 3b 1b be 33 0f 91 3e ca 02 af be e3 01 cc be
       -0.15159509 0.2833191 -0.34181815 -0.3984519
0000a0 eb 33 e2 3e d3 3f 95 3e 0b 4e 79 be 84 82 1f be
       0.44180235 0.29150257 -0.24346177 -0.15577132
0000b0 a7 0b 98 3e 5c 21 c9 be ab a9 3e 3e 57 f5 c8 3e
       0.2969639 -0.39283264 0.1861941 0.3924968
0000c0 e1 f8 67 3d 8e 5d d6 3e be a8 cb be 49 e9 e7 bd
       0.056633834 0.41868252 -0.39777178 -0.113237925
0000d0 e6 f6 98 3e b7 90 ff 3d 93 3b 90 be e9 d8 48 bd
       0.2987587 0.12478774 -0.28170452 -0.049034987
0000e0 e6 fe 92 3e 5f 45 ad be 03 0f 5d 3e af 15 9d 3e
       0.28710097 -0.33841988 0.21587758 0.30680606
0000f0 e5 14 4e 3d c2 39 82 3e 39 9e a6 be 3d d9 8c 3d
       0.050312895 0.2543469 -0.3254259 0.068773724
000100 d2 39 ef 3e 16 01 b0 bc f0 95 89 be 7e 2a 3f 3d
       0.467238 -0.021484893 -0.26872206 0.046671383
000110 6d 0b e1 3d e3 ad cb be 31 a3 dd 3d 54 d4 4f 3c
       0.109885074 -0.39781103 0.10822142 0.0126849
000120 81 ba 0d 3e f6 f8 ae 3e b4 59 c5 be d1 37 8d 3e
       0.13840677 0.34174317 -0.38545 0.27581647
000130 79 77 c3 3e 46 25 19 be 18 43 66 be ce aa a4 bd
       0.38177088 -0.14955625 -0.22486532 -0.08040391
000140 dc 30 17 3e 41 54 df be df 95 05 3e 57 77 30 bd
       0.14764732 -0.43618968 0.13045453 -0.04308256
000150 27 20 23 3e 53 a2 83 3e f2 cc a0 be 36 1a ed 3e
       0.15930234 0.2570978 -0.3140636 0.4630906
000160 b9 80 dd 3e b9 28 52 be 35 09 8f be d0 46 35 bd
       0.4326227 -0.20523347 -0.27936712 -0.044256985
000170 4d 7f c2 3d 78 fd 98 be b0 2b c1 3d ae 60 d5 bc
       0.09496937 -0.2988088 0.09432161 -0.026047077
000180 88 fe 9b bd 37 45 33 bd bc f5 81 3d 9b 87 a2 3d
       -0.07616907 -0.04376718 0.06345698 0.07936021
000190 53 6d 5e 3d cd 76 c1 bc e0 2f 45 bd dc 43 88 3d
       0.05430348 -0.023616219 -0.04814136 0.06653568
0001a0 ad 8c 82 bd 12 83 6c 3c e8 22 74 3c 26 ad 2f bd
       -0.06374488 0.0144355465 0.0149009 -0.042889737
0001b0 61 c5 6f 3d 01 8e 31 bd d8 11 60 3d 62 0f 10 3d
       0.058537845 -0.043348316 0.054704517 0.03517092
0001c0 dd 68 93 3d ae 86 3c bc e4 8f 6d 3c 77 66 4a 3d
       0.071977355 -0.0115067195 0.014499638 0.049414124
0001d0 38 20 ca bc 7b ba 92 3d 2c 88 95 3c 4b 90 4b 3c
       -0.024673566 0.071644746 0.018253408 0.012424539
0001e0 90 28 61 bd bb cd 55 bd 2c f1 95 bc 26 8d 60 3d
       -0.054970324 -0.052198153 -0.018303476 0.05482211
0001f0 90 c1 99 bd 28 f5 48 bc 40 d8 ae 3c 7e ff 96 bd
       -0.07507622 -0.012265481 0.02134335 -0.0737295
000200 9b f2 32 bd c8 ab 82 bd e6 68 46 3d 80 f6 2b 3c
       -0.043688398 -0.06380421 0.048439883 0.010495782
000210 6c 15 f7 3c 6b 35 90 3d f9 a8 82 3d a6 78 56 bd
       0.030161582 0.07041439 0.06379885 -0.052361153
000220 09 f4 8b 3d d4 e1 9b bc 46 e2 5f 3d 2b fe 75 bd
       0.068336554 -0.019028582 0.05465915 -0.060056847
000230 b0 20 ad bb d8 d6 47 bc 54 b1 b0 3c 96 50 07 3d
       -0.0052834377 -0.012197219 0.021568932 0.033035837
000240 50 fe b1 bb b0 27 87 bb 16 f2 48 3d 5b ad 22 bd
       -0.0054319277 -0.004124604 0.049058996 -0.039716106
000250 98 70 47 bc 06 1b 39 3d 58 c3 3d 3c 01 8f 9a 3d
       -0.012172841 0.045191787 0.011582218 0.07546807
000260 45 5d 82 3d 68 4c a5 bd 30 9a 86 3b 86 f0 0a bd
       0.06365446 -0.08071214 0.004107736 -0.033920787
000270 9d 63 9d 3d a0 4d e1 3c 66 80 12 3d 7b ea 9d 3d
       0.07685015 0.027502835 0.03576698 0.07710739
000280 69 56 a1 3d 70 f4 2c bd 63 bd 9e bd 33 9d 93 3d
       0.078778096 -0.0422253 -0.077509664 0.07207718
000290 83 30 88 3d e6 fa 15 bd b0 0d bc 3b 5b 59 a2 bd
       0.06649878 -0.03661623 0.0057389364 -0.079271995
0002a0 f0 80 1b 3d c5 9f 92 3d 96 2d 0c bd 0b 86 a7 3d
       0.03796476 0.0715938 -0.03422316 0.081798635
0002b0 e0 86 27 bd f3 1d 82 3d d4 f9 e7 3c fb 1e 2c bd
       -0.04090011 0.063533686 0.02831737 -0.042021733
0002c0 3b 20 8b 3d 2e 2d 99 bd c6 f0 1b 3d 05 d0 8f 3d
       0.06793257 -0.074793205 0.038071416 0.070220985
0002d0 40 91 93 ba 23 69 94 bd a2 72 30 3d d6 ef c1 bc
       -0.0011258498 -0.07246616 0.043078072 -0.023673933
0002e0 a8 b7 24 bc a0 3d aa 3c 30 c7 78 bd 46 de 49 3d
       -0.010053553 0.020781338 -0.060736835 0.049284242
0002f0 6b f0 95 bd 38 8e 8b bd 46 51 89 bd b1 a1 8d 3d
       -0.07321247 -0.068142354 -0.06704955 0.06915606
000300 98 aa 06 3c 5b e1 9c 3d 50 df 17 3d 5a 60 46 3d
       0.008219384 0.07660171 0.0370782 0.04843173
000310 e0 af 22 3d 73 b0 88 bd ac 6c e1 3c 40 7c 04 3d
       0.03971851 -0.0667428 0.02751764 0.032345057
000320 4d 4b a7 3d a0 fe 18 bd e6 8c 6e 3d e3 e8 80 bd
       0.08168659 -0.037352204 0.05823984 -0.062944196
000330 98 65 5c bc 3a 8b 77 3d e8 89 06 3c 66 98 6c 3d
       -0.013451956 0.06043551 0.00821159 0.057762526
000340 b6 e7 17 bd b1 49 9b 3d a0 1f 8d 3c ea 8b 35 3d
       -0.03708621 0.07582415 0.017226994 0.044322886
000350 50 43 90 bd 85 1e 92 3d 10 c5 6d bd 94 2c f6 3c
       -0.07044089 0.071347274 -0.05804926 0.030050553
000360 d6 a3 da bc 34 e9 81 bc a8 51 77 3c 00 43 ed 3b
       -0.026689451 -0.01585827 0.015095152 0.007240653
000370 40 4a b8 3c 26 d0 66 3d d6 b9 54 3d d6 39 26 3d
       0.022496343 0.05635085 0.05193504 0.0405825
000380 2c a9 89 3c 98 c2 7c 3c 6c b8 ff bc 40 07 aa bc
       0.0168043 0.015427254 -0.031215869 -0.02075541
000390 36 11 65 3d 00 d3 a1 b9 14 d1 82 bc 80 4d 55 ba
       0.055924617 -0.0003086552 -0.015968837 -0.00081368536
0003a0 74 ea 94 3c 60 c4 03 bd 8b fc 22 bd 6b 06 2b bd
       0.018178202 -0.0321697 -0.039791625 -0.041754168
0003b0 a6 2c 68 bd 90 c7 11 3d aa 51 72 3d 82 89 32 3d
       -0.056683205 0.03559071 0.059159912 0.04358817
0003c0 a0 c7 20 bd ab 7e 16 bd f6 55 60 bd 00 98 86 b9
       -0.039252877 -0.036741894 -0.05476948 -0.0002567172
0003d0 d0 04 8e bb a8 37 60 bc e8 43 01 bc 60 78 d8 bc
       -0.00433407 -0.0136851445 -0.007889725 -0.026424587
0003e0 be 00 8f bd 6c bf da 3c 02 6a 3f 3d ac 5f d7 bc
       -0.069825634 0.026702605 0.046731956 -0.026290737
0003f0 7b 0d 7c bd 0d f4 91 3d 30 04 37 bd fd c1 a9 3d
       -0.061536293 0.07126627 -0.044681728 0.082889535
