panna/tests/data/evaluation/test_1/saved_networks/species_1_layer_1_weights_384x12.npy (npy, 18560 bytes, 1 tensors)

array f4 [384, 12]
-0.016640149 -0.073646784 -0.04302212 -0.01934234 0.01613935 -0.032502413 -0.0076013803 -0.036316395
-0.057564914 -0.07309632 0.024798967 -0.045175374 -0.038907647 -0.08227559 -0.05224844 0.018946074
0.024342656 0.017721333 0.0146477 0.06710055 -0.042455535 0.062249042 -0.029887479 0.055843316
0.07479567 0.058743663 -0.030435126 0.07794968 0.031754516 0.08225001 0.032212995 0.075175665
0.014711998 -0.04447226 0.038275324 0.0030718446 -0.014311589 -0.02952727 -0.045848094 -0.011033535
0.0070441365 0.038045228 0.009280406 0.074270494 0.010145843 -0.010173261 -0.0027833804 -0.0051068664
-0.024784565 0.023071527 -0.08318528 0.072990514 -0.06764066 0.08150647 0.0009275675 -0.03777508
0.0035995468 -0.06383421 0.04315231 0.0021581277 -0.01461941 -0.081748925 0.03789022 -0.05657679
-0.047155976 -0.01777687 0.00330621 0.02634696 -0.035833143 -0.023626052 0.013619043 -0.07757964
-0.025913239 0.0138741955 0.0827361 -0.0071150884 -0.024148665 0.019109465 0.034701787 -0.08285183
-0.021828294 0.002776958 -0.020818293 -0.047998868 -0.0314734 -0.011771701 0.06749966 0.05663564
0.046827175 -0.07642307 -0.0048242584 0.07453818 0.056554936 0.05948683 0.037259303 0.0715564
-0.04941702 -0.012122773 -0.07057731 -0.026252829 0.002854906 0.07040531 0.05844309 0.08161736
0.08297021 -0.04731518 -0.055772744 -0.03605046 0.025199175 0.02729591 0.07206825 -0.020857275
0.056693874 -0.008249082 -0.05988904 -0.083236896 0.071261965 -0.017725669 0.072492816 0.081253566
0.061818384 0.05254457 -0.026265722 -0.0642586 0.025449216 0.0457984 0.052110396 0.058999546
0.0042233095 -0.054708224 -0.022433877 -0.026969295 -0.031267367 -0.040655058 0.028299928 0.058693983
-0.024175726 0.020794846 -0.044214368 -0.014408387 -0.0674663 -0.07001142 -0.022177361 0.07368197
-0.07817155 0.014026143 -0.025191527 -0.008968808 -0.04044221 -0.068948746 0.0653499 0.049685456
0.0057913885 -0.073191606 -0.032547794 -0.04983419 -0.019560076 -0.08202257 -0.08089429 -0.042262755
-0.012385868 0.041328944 0.009660125 -0.03725229 -0.008789122 -0.02149741 0.0341483 -0.044213038
-0.077909015 0.06216211 0.07480613 -0.012609445 -0.0804718 0.054815955 -0.052713178 0.016116895
-0.0051262155 0.037747264 0.04697206 0.019764222 -0.06957279 -0.054764234 0.08255071 -0.032518588
-0.034608226 0.05664613 -0.07553105 0.032189466 -0.025747024 -0.039775312 -0.0053049326 0.003435649
0.056011893 0.03207296 0.052320965 -0.066077575 -0.041460674 0.04909613 0.027083658 -0.059829354
-0.07293107 0.056443937 -0.009402417 0.074203454 -0.008489393 -0.007734716 -0.022865117 -0.019512057
0.031065606 -0.045386773 0.04721261 0.035685897 0.03419683 -0.00145372 -0.054615438 -0.017069042
0.037968837 0.030475773 -0.030176543 -0.0019933209 -0.07260897 0.040461443 0.029010735 0.057509102
-0.023724716 0.056929864 0.024874292 -0.00046942383 0.0075611696 -0.029120944 -0.069941185 0.028584123
-0.08225398 -0.006813489 0.041694947 0.011993311 -0.03056997 0.015288174 0.032705866 -0.06557864
0.050977148 -0.03889277 -0.0037377253 0.07192346 0.03927374 0.017787099 -0.08231264 -0.07020293
0.006719984 0.05520638 0.013688587 -0.049414635 -0.07881032 0.07164284 0.06085799 0.014813028
00000000: ec50 88bc 20d4 96bd f637 30bd d473 9ebc
00000010: ac36 843c 4021 05bd 0015 f9bb 80c0 14bd
00000020: 30c9 6bbd 86b3 95bd 3427 cb3c d009 39bd
00000030: a05d 1fbd 1b80 a8bd 7602 56bd cc34 9b3c
00000040: 406a c73c 542c 913c e8fc 6f3c 036c 893d
00000050: dbe5 2dbd daf8 7e3d 96d6 f4bc f6bb 643d
00000060: 792e 993d 329d 703d 1653 f9bc 15a4 9f3d
00000070: 0611 023d b172 a83d c6f1 033d b3f5 993d
00000080: 980a 713c 8b28 36bd 96c6 1c3d 0051 493b
00000090: 287b 6abc 2ce3 f1bc 36cb 3bbd 00c6 34bc
000000a0: 80d2 e63b 50d5 1b3d d80c 183c 211b 983d
000000b0: c03a 263c c0ad 26bc 6069 36bb 8057 a7bb
000000c0: 0009 cbbc 8000 bd3c 0b5d aabd 0d7c 953d
000000d0: 3087 8abd ddec a63d 0028 733a 0bba 1abd
000000e0: 60e6 6b3b 83bb 82bd 7ac0 303d 606f 0d3b
000000f0: 4086 6fbc fb6b a7bd c632 1b3d 10bd 67bd
00000100: a026 41bd cca0 91bc 00ad 583b 94d5 d73c
00000110: c6c5 12bd 6c8b c1bc 6822 5f3c 13e2 9ebd
00000120: 0048 d4bc 9850 633c 8b71 a93d b025 e9bb
00000130: 6cd3 c5bc 748b 9c3c 7623 0e3d 38ae a9bd
00000140: 40d1 b2bc a0fd 353b 208b aabc 769a 44bd
00000150: 40ea 00bd 18de 40bc 433d 8a3d c6fa 673d
00000160: dacd 3f3d b383 9cbd d014 9ebb 79a7 983d
00000170: 26a6 673d 76a8 733d 369d 183d 298c 923d
00000180: 8069 4abd 989e 46bc d68a 90bd 2c10 d7bc
00000190: 6019 3b3b a930 903d 0662 6f3d 0127 a73d
000001a0: 49ec a93d 90cd 41bd f671 64bd a6a9 13bd
000001b0: 806e ce3c ac9b df3c 8598 933d e0dc aabc
000001c0: d637 683d 2827 07bc 364e 75bd 1b78 aabd
000001d0: cbf1 913d 6c35 91bc 1d77 943d 4568 a63d
000001e0: 4635 7d3d fa38 573d 362b d7bc 039a 83bd
000001f0: e07a d03c 1a97 3b3d b671 553d 82a9 713d
00000200: b063 8a3b bb15 60bd 40c7 b7bc b6ee dcbc
00000210: 3612 00bd eb85 26bd 40d5 e73c 1a69 703d
00000220: 2c0c c6bc f459 aa3c 201a 35bd 2811 6cbc
00000230: c62b 8abd 2662 8fbd 4cad b5bc 93e6 963d
00000240: 6818 a0bd e8cd 653c 765e cebc e8f1 12bc
00000250: bba6 25bd 0035 8dbd 2bd6 853d fa82 4b3d
00000260: b0c5 bd3b 7be5 95bd d650 05bd f01e 4cbd
00000270: 743c a0bc 73fb a7bd e8ab a5bd b61b 2dbd
00000280: 18ee 4abc 8a48 293d 8045 1e3c db95 18bd
00000290: 4000 10bc 561b b0bc 16df 0b3d bb18 35bd
000002a0: c38e 9fbd b29d 7e3d f533 993d d897 4ebc
000002b0: 66ce a4bd b286 603d c6e9 57bd 9407 843c
000002c0: d0f9 a7bb e09c 1a3d c665 403d 94e8 a13c
000002d0: 2e7c 8ebd 7650 60bd 5910 a93d 3632 05bd
000002e0: 5bc1 0dbd c605 683d 06b0 9abd 1ad9 033d
000002f0: 6ceb d2bc 70eb 22bd 00d5 adbb a028 613b
00000300: ba6c 653d f05e 033d 824e 563d ae53 87bd
00000310: abd2 29bd 0619 493d 8cde dd3c a00f 75bd
00000320: e35c 95bd c231 673d 980c 1abc fbf7 973d
00000330: 1817 0bbc 8073 fdbb a04f bbbc c0d7 9fbc
00000340: 4c7d fe3c 7be7 39bd 0262 413d 602b 123d
00000350: fa11 0c3d c08a beba 70b4 5fbd 60d4 8bbc
00000360: 3685 1b3d 54a8 f93c cc34 f7bc 60a2 02bb
00000370: 03b4 94bd e6ba 253d eca7 ed3c aa8e 6b3d
00000380: 565a c2bc 4a2f 693d 2cc5 cb3c 001d f6b9
00000390: b0c3 f73b 0c8f eebc 533d 8fbd 4029 ea3c
000003a0: c674 a8bd b043 dfbb 52c8 2a3d 987f 443c
000003b0: e06d fabc 407b 7a3c 96f6 053d 184e 86bd
000003c0: 6acd 503d 064e 1fbd a0f4 74bb 9b4c 933d
000003d0: 80dd 203d 40b6 913c 8893 a8bd 8ec6 8fbd
000003e0: 5033 dc3b 1620 623d 1846 603c 0067 4abd
000003f0: 4e67 a1bd 7bb9 923d 3a46 793d 58b2 723c
