panna/tests/data/train/test_2/saved_networks/species_1_layer_2_weights_12x6.npy (npy, 416 bytes, 1 tensors)

array f4 [12, 6]
0	0x3e1bf083	0.15228467
1	0x3e47fa3a	0.19529048
2	0xbda499d8	-0.08037156
3	0xbd8cf0c3	-0.06881859
4	0xbd975717	-0.07389658
5	0x3b82d744	0.003992947
6	0x3c32192d	0.01087026
7	0x3e845878	0.25848746
8	0xbdb7082d	-0.08937106
9	0xbe08d8df	-0.1336398
10	0x3dad454a	0.084604815
11	0x3b288f6c	0.0025720252
12	0x3ddf732c	0.10910639
13	0x3e0910bc	0.1338529
14	0x3cad2997	0.021137996
15	0xbe59e935	-0.21280368
16	0x3df734b9	0.12070603
17	0xbd4d5727	-0.050131943
18	0x3e14ad79	0.145193
19	0x3e906858	0.28204608
20	0xbdc4d065	-0.096100606
21	0xbe46c0ed	-0.19409533
22	0xbd86b553	-0.065775536
23	0x3dac8dc7	0.084254794
24	0x3e05faca	0.1308395
25	0x3e49678b	0.19668405
26	0x3e3451d8	0.17609346
27	0xbdfc3a06	-0.123157546
28	0x3dd14c9b	0.102196895
29	0xbd072bd2	-0.033000775
30	0x3d911e28	0.0708583
31	0xbd84e550	-0.064890504
32	0x3cb3ea2b	0.021962246
33	0xbb8b6e1a	-0.0042550685
34	0xbe40e5de	-0.18837687
35	0x3e32de9c	0.17467731
36	0xbd6a9b53	-0.057277035
37	0x3e3bd4c9	0.1834289
38	0xbd30e0af	-0.043183025
39	0xbcd767a3	-0.026294535
40	0x3ad844fc	0.0016500051
41	0x3dd0ea3d	0.102009274
42	0x3d1a3e49	0.037657056
43	0x3cf5f607	0.030024542
44	0xbe13a5df	-0.14418744
45	0xbdc9bcf8	-0.09850496
46	0x3e1391dc	0.1441111
47	0x3de01fa2	0.109435335
48	0x3ded610f	0.11590778
49	0x3e88eb80	0.26742172
50	0x3e332495	0.17494424
51	0xbdebec2f	-0.11519658
52	0x3d541780	0.051780224
53	0x3e057ddf	0.13036297
54	0xbcdb0076	-0.026733618
55	0xbe9233f3	-0.2855526
56	0x3d9ac307	0.0755673
57	0x3da0b706	0.07847409
58	0x3c3d1d3f	0.011542617
59	0x3df8f974	0.121569544
60	0xbdb82bf2	-0.08992757
61	0xbeaa7995	-0.33295885
62	0xbde4aaab	-0.11165365
63	0x3e2f0718	0.1709255
64	0x3cb3ad40	0.021933198
65	0x3e244994	0.16043693
66	0xbe0de81d	-0.13858075
67	0xbe59a2ff	-0.21253584
68	0x3d97f8b7	0.074204855
69	0x3e2b902c	0.16754216
70	0x3df9ec57	0.122032814
71	0x3e62ed24	0.22160774
