panna/tests/data/train/test_2/saved_networks/species_3_layer_1_weights_384x12.npy (npy, 18560 bytes, 1 tensors)

array f4 [384, 12]
0	0xbd0bf43c	-0.034168467
1	0x3d75280a	0.059852637
2	0x3e05e77d	0.13076587
3	0x3cc5458e	0.024081018
4	0xbd5b0fd9	-0.05348191
5	0xbd2423c5	-0.040073175
6	0xbda8bf7e	-0.08239649
7	0xbd813f73	-0.0631093
8	0xbd43c947	-0.047799375
9	0x3dff0a86	0.12453179
10	0xbd878cb8	-0.06618637
11	0xbd6c1d41	-0.057645086
12	0x3d446f15	0.0479575
13	0xbbe0ad60	-0.0068566054
14	0x3d448708	0.04798034
15	0x3ba55daa	0.005046566
16	0x3c8278e0	0.015926778
17	0x3b8748b7	0.0041285413
18	0x3be439cb	0.0069648973
19	0xbd212e20	-0.03935063
20	0x3d9a7f19	0.07543773
21	0x3d8c91d8	0.06863755
22	0x3ccc2e83	0.024924522
23	0xbb6a531f	-0.003575511
24	0xbd3bcf6f	-0.04585212
25	0x3c617f30	0.013763234
26	0x3d2cba36	0.042169772
27	0xbd8bc740	-0.06825113
28	0x3d82540c	0.06363687
29	0xbd47460f	-0.048650797
30	0x3d05aed9	0.03263745
31	0xbcfd0e38	-0.03089057
32	0xbb14b4a1	-0.002269067
33	0x3e09324b	0.13398091
34	0xbc6f0a4c	-0.014589857
35	0xbd34ed1a	-0.04417143
36	0x3cb668cf	0.022266774
37	0x3ac44431	0.0014973936
38	0x3de05a52	0.10954727
39	0xbc435b4d	-0.011923623
40	0xbd8bb954	-0.06822458
41	0x3cc1c220	0.023652136
42	0x3d9153a6	0.07096033
43	0xbd42f59a	-0.047597505
44	0x3ce6f276	0.028191786
45	0x3d9f719e	0.07785343
46	0xbbcd96e3	-0.0062740906
47	0x3da1a5fc	0.07892987
48	0x3d32c038	0.043640345
49	0x3db5cb79	0.088767
50	0x3deb690a	0.11494644
51	0xbd8d6d93	-0.06905665
52	0xbc5d2869	-0.013498404
53	0x3d6292d4	0.055315807
54	0x3cba1de8	0.022719339
55	0xbc92f557	-0.017939253
56	0xbcc25ffe	-0.023727413
57	0x3e28f7b1	0.16500737
58	0xbb77ca5e	-0.003780983
59	0xbcddf718	-0.027095363
60	0xbd65850a	-0.05603508
61	0xbd0ba851	-0.034096066
62	0x3de40793	0.11134257
63	0xbdbfd423	-0.09366634
64	0xbcfc518c	-0.030800603
65	0x3d5d32b7	0.054003444
66	0xbccad359	-0.024758982
67	0xbda724d8	-0.08161324
68	0xbd9e6d03	-0.07735636
69	0x3deb6b98	0.11495131
70	0x3d0e53cb	0.03474788
71	0x3c0191ce	0.007908298
72	0x3bf279e9	0.0073997867
73	0x3c395b81	0.01131332
74	0x3e323b25	0.17405374
75	0x3d44d3b3	0.048053455
76	0xbd8504c4	-0.064950496
77	0xbd870228	-0.06592208
78	0x3d3faef1	0.046797697
79	0xbdd29207	-0.10281759
80	0x3d34fd49	0.044186864
81	0x3de59f80	0.11212063
82	0xbd974956	-0.073870346
83	0x3cb81054	0.022468723
84	0xbc64e2f8	-0.013970129
85	0xbd62ebd1	-0.055400673
86	0x3cf366db	0.029712131
87	0x3cb9f2ce	0.022698786
88	0x3ce9b449	0.02852835
89	0xbb9a5686	-0.0047100214
90	0xbd7a5f89	-0.061126266
91	0xbd7617da	-0.06008134
92	0xbd826be9	-0.063682385
93	0x3e20f8ed	0.15719958
94	0x3d71514f	0.058915433
95	0x3caa1acd	0.020764733
96	0x3d6ba408	0.05752948
97	0x3d81b368	0.06333047
98	0x3dd74e86	0.10513024
99	0xbcfbbd8f	-0.030730037
100	0x3d1f8c39	0.038952086
101	0x3987e5e3	0.00025920485
102	0xbd83cd6b	-0.06435665
103	0xbc0827ed	-0.0083103
104	0x3d564e9c	0.05232106
105	0x3cf85ece	0.030318644
106	0x3d993c48	0.07482201
107	0x3becb4c8	0.0072236992
108	0xbd9f3481	-0.07773686
109	0x3dabc147	0.08386474
110	0x3d40152c	0.04689519
111	0xbd7029ff	-0.0586338
112	0x3da19a0d	0.07890711
113	0x3d9706d4	0.07374349
114	0x3d50df61	0.05099428
115	0xbdf102ad	-0.117680885
116	0xbce67010	-0.028129607
117	0x3dd66a1c	0.104694575
118	0x3d0aef46	0.033919595
119	0x3d45a84f	0.048256215
120	0x3d8f5939	0.0699944
121	0xbb47035d	-0.0030366995
122	0xbcaa2113	-0.020767724
123	0xbda70ed4	-0.08157125
124	0x3d976ae9	0.07393438
125	0xbda40295	-0.08008305
126	0x3da8e266	0.08246307
127	0x3cf8b639	0.030360328
128	0xbd4286a6	-0.047491692
129	0x3da3116d	0.07962308
130	0x3cad2c3b	0.021139255
131	0xbd8dd850	-0.06926024
132	0xbda477a0	-0.08030629
133	0x3d2e86e9	0.04260913
134	0xbd655211	-0.055986468
135	0xbd51de05	-0.051237125
136	0x3da4e555	0.08051554
137	0xbcc1d02d	-0.023658836
138	0x3c5a4626	0.013322389
139	0x3b8e4396	0.004341553
140	0xbced610c	-0.02897694
141	0x3c5d3164	0.013500545
142	0x3bfb4523	0.007668154
143	0x3b65c3c5	0.0035059315
144	0x3c757bc0	0.014983118
145	0xbd1e3436	-0.03862401
146	0x3ce53dd4	0.027983584
147	0x3c84748c	0.016168855
148	0xbd6ea840	-0.058265924
149	0xbd843783	-0.064559005
150	0x3da0c871	0.07850731
151	0x3d5a59ca	0.053308286
152	0xbd0bd616	-0.034139715
153	0xbd8c0940	-0.06837702
154	0xbd72da46	-0.059290193
155	0x3d953859	0.07286138
156	0xbcb28b00	-0.021794796
157	0x3d0ba43a	0.034092166
158	0x3d4dd0c6	0.05024793
159	0xbaab7ec0	-0.0013084039
160	0x3b50d4a0	0.0031865016
161	0x3d8e17f3	0.06938162
162	0xbcf4a216	-0.029862445
163	0xbcf813ac	-0.030282818
164	0xbd059786	-0.032615207
165	0xbd2b95c6	-0.041890882
166	0xbd976116	-0.073915645
167	0x3d036736	0.03208085
168	0xbaddad40	-0.0016912594
169	0x3c083580	0.008313537
170	0x3d96f37d	0.073706605
171	0x3d65176a	0.055930533
172	0xbd3b173b	-0.04567645
173	0xbc1025c0	-0.008798063
174	0xbd994068	-0.07482988
175	0x3d3e1b8a	0.046412982
176	0x3daa6a19	0.08321018
177	0x3d9000bd	0.07031391
178	0xbc1d8718	-0.009614728
179	0xbd0e72f0	-0.03477758
180	0x3c29ab28	0.010355748
181	0xbc968580	-0.018374205
182	0xbcb57976	-0.022152644
183	0x3d2106b0	0.03931302
184	0x3ceb84ac	0.028749786
185	0x3c00b8d8	0.00785657
186	0x3d8c54d3	0.068521164
187	0xbd6deb7b	-0.0580859
188	0xbd3e643b	-0.046482306
189	0x39e58d00	0.00043783337
190	0xbd57fbab	-0.052730244
191	0x3ac6aec0	0.0015158281
192	0xbd8013a1	-0.06253744
193	0x3c0e4aad	0.008684796
194	0x3da81fc7	0.08209186
195	0xbd851d71	-0.06499756
196	0xbda96381	-0.08270932
197	0x3da27887	0.07933145
198	0xbbd0c5f0	-0.0063712522
199	0xbd182455	-0.037144024
200	0x3d849a44	0.06474736
201	0x3da9306d	0.082611896
202	0x3d5eba17	0.054376688
203	0xbd68ba9d	-0.056818593
204	0x3d5dc79a	0.054145433
205	0xbbc666f0	-0.0060547516
206	0x3e322287	0.17395984
207	0xbca89285	-0.020577678
208	0x3d25d370	0.040484846
209	0x3cf564b5	0.029955247
210	0xbd428dac	-0.04749839
211	0xbe01ee19	-0.12688483
212	0xbd4cef2b	-0.050032776
213	0x3e1dd93b	0.15414898
214	0xbd7d6aa0	-0.061869264
215	0xbd489408	-0.0489693
216	0xbd1f8705	-0.038947124
217	0x3d91aa41	0.071125515
218	0x3e220fe2	0.15826371
219	0x3d81c255	0.06335894
220	0xbd41ba5f	-0.047296878
221	0xbd73c600	-0.059515
222	0xbb694b00	-0.0035597682
223	0x3cc13bb0	0.023588032
224	0x3c25d378	0.010121219
225	0x3cfd5f74	0.030929305
226	0x3ba28b02	0.0049604187
227	0x3d835102	0.064119354
228	0x3c9f9d32	0.019484136
229	0x3d3f8096	0.04675349
230	0x3d697d9d	0.05700456
231	0x3bf50cc5	0.007478329
232	0xbcea593c	-0.028607003
233	0x3d4f19c0	0.050561666
234	0x3d8c4bb0	0.06850374
235	0xbde2fc2c	-0.11083254
236	0x3d02fa4a	0.031976976
237	0x3e01f5bb	0.12691395
238	0x3d505f11	0.050871912
239	0x3db8d6dd	0.09025357
240	0x3d659aab	0.056055706
241	0xbd660f9a	-0.056167223
242	0x3e0a1508	0.13484585
243	0xbc36cdb7	-0.011157445
244	0xbcc3eead	-0.02391752
245	0xbd8fe9a6	-0.07026987
246	0xbd814f55	-0.063139595
247	0xbd871a9a	-0.06596871
248	0xbd246b03	-0.040141117
249	0x3ce6e7af	0.028186647
250	0x3da0367c	0.07822892
251	0xbcfb81e0	-0.030701578
252	0xbc26988d	-0.010168207
253	0x3dc152d4	0.09439626
254	0x3e2e07f7	0.16995226
255	0x3d7091d3	0.05873282
