panna/tests/data/train/test_2/saved_networks/species_2_layer_1_weights_384x12.npy (npy, 18560 bytes, 1 tensors)

array f4 [384, 12]
-0.0172645 0.13702694 -0.0064718435 0.02617358 0.05702505 -0.07295112 -0.037342247 -0.042549502
-0.025012065 -0.060120653 -0.12810472 0.07631041 0.036445957 0.13775626 0.031344045 0.014340182
0.032181904 -0.032033905 -0.04293837 -0.020442778 0.0839613 -0.03696296 -0.1161214 0.07805441
-0.0021979846 0.001622621 -0.057254117 0.090746455 0.050228592 -0.057755828 0.012463624 -0.07595826
0.04132826 0.006265455 0.001587721 0.010522998 0.0918359 0.1074852 0.026111402 0.02158777
0.040038392 -0.086326554 0.026237221 -0.11488518 0.07317651 -0.04075002 -0.026502462 0.0054286225
-0.011749864 0.038941838 -0.029022872 -0.015541038 -0.020196531 0.026056927 -0.045905806 -0.031422637
-0.0023716358 -0.062895365 -0.08821216 0.06685284 -0.03477328 0.036208954 -0.031940132 0.0872465
0.06472133 -0.06723268 0.0013361413 -0.07952273 -0.06640724 -0.036173336 -0.038337193 -0.028013267
-0.036358483 -0.014728667 -0.04548069 0.084182784 0.022761162 -0.09915966 -0.10669031 -0.033637352
0.014392665 -0.0063242274 -0.10651572 0.025052233 0.06779682 -0.0025608886 -0.0041101654 0.022904508
0.10706488 -0.13986397 -0.0991663 -0.14538652 -0.05021931 0.06926463 -0.00273667 0.044393998
0.0736416 0.13296588 0.03916219 0.09984405 0.08379701 -0.101938784 0.012205015 -0.024299262
0.05071192 0.022462 0.00045398402 0.032944385 0.03891619 -0.023663508 -0.07816995 0.014787753
0.03714247 -0.1018153 -0.122911006 -0.034433708 0.0430927 -0.063568644 -0.09584663 -0.05635162
0.019507758 0.04977193 0.0754842 -0.049861535 0.084695436 -0.12195703 -0.12505963 -0.0200374
-0.0044757905 -0.06392821 0.0029645013 -0.03318187 0.051447462 0.044335302 0.035469584 -0.016554845
0.037899658 -0.04237041 -0.12649737 -0.008134236 -0.010367455 0.0029546863 -0.092453696 0.0654047
-0.002382417 0.09065949 0.05192539 -0.060986467 0.016315937 0.014946299 -0.094843544 -0.11711315
0.010997089 -0.025701828 -0.1259924 0.08254788 0.083533406 0.005107472 0.07154944 -0.05217283
0.103167005 -0.045074143 -0.006545221 -0.10757068 -0.0077478457 0.08570715 0.01663854 0.019906176
0.10308207 0.09205857 -0.044636764 0.080263525 0.08472736 -0.009472225 0.0075682774 -0.12758327
0.03535492 -0.021721477 0.023940392 0.027667804 0.011522617 0.0015271446 -0.02119804 -0.07335319
0.07540556 0.07094604 -0.044568155 -0.0673791 -0.002698095 -0.07349831 -0.0034440893 0.01335393
-0.0230347 0.12315382 0.034175914 -0.05786572 0.03535664 -0.006382977 -0.00015690735 -0.016239189
0.028127324 0.09693107 -0.091471635 -0.038609494 0.027651511 0.025043117 -0.063988306 -0.0608904
0.09854873 -0.04355376 -0.0238477 -0.07817198 -0.06922516 0.047915623 -0.12813948 -0.08172152
-0.0035572227 0.11584131 -0.005523029 0.08771138 0.084630206 -0.0362217 -0.07148274 -0.15329085
-0.012918898 -0.008326236 -0.027406227 0.008235259 0.071221516 0.07922055 -0.016559757 0.07035966
0.08760017 -0.03417088 -0.09969803 0.009421542 -0.04921355 0.016259138 -0.12691975 0.06320344
-0.009880753 0.020415297 0.042798594 0.01498579 0.11360292 0.0063584168 -0.12757383 -0.07452315
0.0013255238 -0.009706293 -0.06604526 0.07800713 0.038721956 0.1160672 -0.08078735 0.03462759
00000000: 486e 8dbc ca50 0c3e c211 d4bb fa69 d63c
00000010: 1993 693d 6667 95bd 2ff4 18bd 6348 2ebd
00000020: 1ae6 ccbc 1341 76bd e22d 03be a248 9c3d
00000030: 5b48 153d fa0f 0d3e 9d62 003d 15f3 6a3c
00000040: 2cd1 033d fc35 03bd 25e0 2fbd 9d77 a7bc
00000050: e7f3 ab3d 7966 17bd 0ed1 edbd feda 9f3d
00000060: 100c 10bb 20ae d43a 4b83 6abd 47d9 b93d
00000070: 7fbc 4d3d 6091 6cbd 3a34 4c3c 0190 9bbd
00000080: d247 293d 724e cd3b 141b d03a a768 2c3c
00000090: 7614 bc3d 3321 dc3d 94e7 d53c d6d8 b03c
000000a0: 4cff 233d facb b0bd 71ef d63c ec48 ebbd
000000b0: 91dd 953d 7ee9 26bd b11b d9bc 96e2 b13b
000000c0: 8082 40bc 7a81 1f3d 60c1 edbc d69f 7ebc
000000d0: 3273 a5bc 5675 d53c ba07 3cbd 06b5 00bd
000000e0: 726d 1bbb 49cf 80bd 94a8 b4bd 24ea 883d
000000f0: 6d6e 0ebd d74f 143d a8d3 02bd 4bae b23d
00000100: 9e8c 843d 4ab1 89bd 7621 af3a d0dc a2bd
00000110: 8500 88bd 7e2a 14bd 7607 1dbd 147c e5bc
00000120: a2ec 14bd 8250 71bc f649 3abd 0668 ac3d
00000130: 9e75 ba3c 3814 cbbd 7380 dabd 52c7 09bd
00000140: 36cf 6b3c 773b cfbb ea24 dabd 573a cd3c
00000150: 0fd9 8a3d 95d4 27bb 91ae 86bb 3ca2 bb3c
00000160: d544 db3d 8038 0fbe b317 cbbd 34e0 14be
00000170: c3b2 4dbd 9dda 8d3d b459 33bb 7bd6 353d
00000180: 68d1 963d 3528 083e 8868 203d 0a7b cc3d
00000190: c49d ab3d 48c5 d0bd 8bf7 473c 3f0f c7bc
000001a0: 4db7 4f3d 3a02 b83c b404 ee39 b1f0 063d
000001b0: 9566 1f3d f9d9 c1bc 9117 a0bd 5548 723c
000001c0: b422 183d 8a84 d0bd c4b8 fbbd 5c0a 0dbd
000001d0: f981 303d 4730 82bd 3d4b c4bd f5d0 66bd
000001e0: bcce 9f3c a7dd 4b3d 7697 9a3d 9c3b 4cbd
000001f0: cd74 ad3d 9bc4 f9bd a20f 00be 7925 a4bc
00000200: a7a9 92bb cbec 82bd 1448 423b b6e9 07bd
00000210: 93ba 523d ef98 353d 8e48 113d 079e 87bc
00000220: ac3c 1b3d 988c 2dbd 8788 01be 7545 05bc
00000230: 42dc 29bc 69a3 413b 5d58 bdbd e6f2 853d
00000240: 5322 1cbb afab b93d b8af 543d f2cc 79bd
00000250: 00a9 853c 52e1 743c 553d c2bd 05d9 efbd
00000260: 222d 343c a48c d2bc 2704 01be dd0e a93d
00000270: 9013 ab3d 955c a73b 8388 923d 2db3 55bd
00000280: 3949 d33d aa9f 38bd 4b79 d6bb 044e dcbd
00000290: a4e1 fdbb 3b87 af3d 8c4d 883c 4712 a33c
000002a0: b11c d33d 3489 bc3d 0ad5 36bd 3461 a43d
000002b0: 8a85 ad3d 6431 1bbc 50ff f73b 30a5 02be
000002c0: 52d0 103d 3df1 b1bc a41e c43c 97a7 e23c
000002d0: 5cc9 3c3c 782a c83a 83a7 adbc 333a 96bd
000002e0: 3b6e 9a3d 284c 913d 198d 36bd 0efe 89bd
000002f0: 86d2 30bb 4886 96bd 3bb6 61bb 71ca 5a3c
00000300: 44b3 bcbc 1238 fc3d 0bfc 0b3d 9b04 6dbd
00000310: 20d2 103d 4b28 d1bb 7f87 24b9 0c08 85bc
00000320: 466b e63c cc83 c63d 7b55 bbbd fd24 1ebd
00000330: 6c85 e23c 3927 cd3c 4d0c 83bd 3668 79bd
00000340: ebd3 c93d 6d65 32bd 405c c3bc a218 a0bd
00000350: ecc5 8dbd 2c43 443d ff36 03be 9d5d a7bd
00000360: 4b20 69bb 353e ed3d 86fa b4bb 06a2 b33d
00000370: 9a52 ad3d 355d 14bd 8b65 92bd 47f8 1cbe
00000380: c9a9 53bc c46a 08bc 0683 e0bc 2eed 063c
00000390: 96dc 913d 623e a23d 54a8 87bc ba18 903d
000003a0: b867 b33d c4f6 0bbd 7b2e ccbd d05c 1a3c
000003b0: 2694 49bd e231 853c 40f7 01be ce70 813d
000003c0: e2e2 21bc fb3d a73c 944d 2f3d f586 753c
000003d0: a6a8 e83d 445a d03b b7a2 02be 989f 98bd
000003e0: 33bd ad3a 2507 1fbc bd42 87bd 34c2 9f3d
000003f0: ea9a 1e3d a4b4 ed3d d773 a5bd a9d5 0d3d
