panna/tests/data/train/test_2/saved_networks/species_3_layer_2_weights_12x6.npy (npy, 416 bytes, 1 tensors)

array f4 [12, 6]
000000 e6 8b 30 3b 2b e8 aa bd 51 1d a2 3d ef 59 5a 3e
       0.0026938855 -0.08345064 0.07915748 0.2132337
000010 26 3d a5 bd 44 1f c5 bd 1e 5f 3b 3d 69 3f c7 3c
       -0.08068304 -0.09625104 0.045745008 0.024322229
000020 54 f7 10 3e 4f 20 7d 3e 02 05 fa bd 5c ba 92 3d
       0.14156848 0.24719356 -0.122079864 0.071644515
000030 f9 ec 13 be 9c 31 2c bd c1 30 91 bc bc 51 15 bc
       -0.14445867 -0.0420395 -0.017723443 -0.009113725
000040 d3 ee 84 3d c9 98 47 3d b9 aa 17 3d ab 5f 1d 3b
       0.064908646 0.04872969 0.03702805 0.0024013321
000050 f9 3e 13 3e 41 f2 7c 3e f9 9a 1c 3e c1 26 91 bb
       0.14379491 0.24701788 0.15293492 -0.0044296687
000060 82 0c 8b 3c 92 22 f5 bd f6 02 8b bb 6f d5 8e 3e
       0.016973738 -0.119694844 -0.0042422963 0.27897212
000070 21 50 25 3d b5 71 93 3b ca a0 eb 3d b4 2a 6b 3d
       0.04035962 0.004499639 0.115052775 0.05741377
000080 c1 a6 ff bd 7c 94 aa 3d 71 64 d3 3c 6a 61 9a 3d
       -0.12482978 0.083291024 0.02580473 0.075381115
000090 8e 4b b9 bc 1f 30 cd bd 2d 74 ed bd 2b 66 8b 3d
       -0.022619035 -0.10018944 -0.115944244 0.06806596
0000a0 2a 3a 3d 3e f8 e9 c1 3d c8 1f b9 bd e3 0c 00 3e
       0.18479219 0.09468454 -0.09039265 0.12504916
0000b0 4a 12 0f be 98 6c 98 3c 40 38 92 bd 39 f7 f2 3c
       -0.1397182 0.018606469 -0.07139635 0.0296589
0000c0 74 dc 95 bd 93 9e 8a bd 28 3b cf bc cc 5f 23 3e
       -0.07317439 -0.06768527 -0.025296763 0.15954512
0000d0 49 05 70 bd 22 2c 95 bd 6e 45 2e bd ee 0c 08 3e
       -0.05859879 -0.07283808 -0.042546682 0.13286182
0000e0 cb b4 f7 3c 5c 95 10 bd 4d 03 1f bd 6c 62 9a 3d
       0.030237576 -0.03529869 -0.038821507 0.07538304
0000f0 ed ad cc bd 4e 03 16 3e b4 e0 17 3d 77 9d 0d 3e
       -0.09994111 0.14649698 0.037079528 0.138296
000100 76 71 a1 bd ae 46 3e be 4c d3 a0 3d 1f 57 25 3d
       -0.07882969 -0.1858165 0.07852802 0.04036629
000110 ee 98 43 bd 3c 5a d9 3d 56 01 8d bd be 82 b9 3d
       -0.047753267 0.10612914 -0.068850204 0.0905814
