panna/tests/data/train/test_2/saved_networks/species_1_layer_1_weights_384x12.npy (npy, 18560 bytes, 1 tensors)

array f4 [384, 12]
00000000: 926d 223d 9f4b a5bd 5fda 4abd 6dee 12bd
00000010: f4f7 053b 5208 333d 4ab5 7a3d f2cf 043c
00000020: 7128 a4bd 1164 d43d 2d1f 0abe 3b60 763e
00000030: 276c 9b3d 8962 c8bc 231a d8bd 5fb1 233d
00000040: 1240 0e3b 0d9f 963b d3b4 19bc 027b 4a3b
00000050: 922b 35bd f65a 0d3e 16dc 27be 57a3 843d
00000060: 4f97 de3d df6b 1fbd efc1 7cbd a4f2 0fbb
00000070: bb1d bcbd 6fb1 47bd fbc8 183d 36e5 913c
00000080: 72ba 4a3d 1771 013e e3aa 5bbd 7548 813c
00000090: dbc8 20bd 266b 1ebe 33ee 82bd e1f0 2dbd
000000a0: 965c c1bd cb26 7cbd 2a2e 0e3c b558 9bbb
000000b0: c378 e23c 6d8b 833c 121a adbd e853 c53c
000000c0: 6d40 c03d f5e4 2bbe 4b1c fabd f33c 8bbc
000000d0: a197 93bb 9cc5 953d 2cad 003c 0817 d3bc
000000e0: c8b4 863c 2d9a 0b3e 1830 ebbd bdfc 873c
000000f0: 0c00 0f3a 0cca 5f3d ce38 203d 897f 41bb
00000100: 3670 8b3c 1913 ecbd f4a6 73bd 8dc5 6bbd
00000110: 89f2 2a3d 6281 933d dfd7 81bd fad6 ee3d
00000120: f3a5 b33d fded 9e3d 2747 acbc 5c85 09bc
00000130: 9ae0 02be 181c 073c aaba 953d bd13 99bd
00000140: 9b3b adbc d234 0bbc 0ea8 0f3d bf1d 023b
00000150: f270 0b3d 9f29 583d 8796 e1bd af64 a63d
00000160: d2a3 97bd 8607 e8bc fb33 453c 8f96 bf3c
00000170: 517a f03b 6283 b9bc b542 283d fbfb 3c3d
00000180: 3ff0 8d3d 1730 abbd d5a7 40bd e8fd 133d
00000190: 98fd c5bd db25 273c 0165 78bd 5645 bc3c
000001a0: 8fe1 88bd 96a1 7abd 180c 323d 8965 0cbe
000001b0: 771c c73d 06ed 98bd 51bb 5bbc 11f2 683d
000001c0: f2bf d9bd 838c e1bc ebf5 ecbb 9cbc a53d
000001d0: d421 95bc 02e4 12bd d1d3 de3c 618c 39bb
000001e0: da8c 963d 7bca 03be ee90 babd 5413 cb3d
000001f0: 8d19 b0bd 7733 af3d 7bf4 b83b 339b 9fbd
00000200: 2432 813b 37f9 5e3d 6d3c 68bc fe40 013d
00000210: 4806 0d3e f01f 77bd db21 0fbd 3b70 c33d
00000220: d68f 49bc 6477 753d c392 513d 6c6e 32bd
00000230: 63bc 3cbd 826a fabc b98a 2ebc 2938 ab3d
00000240: cb12 8f3c b684 f1bd d3e5 723b 2a50 6fbd
00000250: 297e 863c 3336 e63d e148 aabc 0d26 c6bc
00000260: b605 e53d 9224 723d b4da b63d ee38 663c
00000270: 14bf dcbc ff3d 4abd 9c77 1cbd ce44 ba3d
00000280: a658 99bd ffdb 0c3e 2f1c b63d 2ca3 143c
00000290: a56d 75bd b474 92bd e9bb 303d 0fa1 8a3d
000002a0: 8c18 a2bc a09d f3bc f0a3 77bc 6632 3e3c
000002b0: cdae 7f3c ce81 003e 9d9d 8abc 1409 2cbd
000002c0: 30c7 b4bb 146d 723d 6536 013d 3f42 ab3c
000002d0: 8415 443d 5894 503c 44e3 5fbd 87e8 c23c
000002e0: 8a14 ddbc 607f b23d dfd9 40bd 90d7 d5bc
000002f0: ee0b 3f3d 130d 983c fac3 573d 476d f33c
00000300: 6f5d a03d ad74 8cbd 6128 2f3d 82dc 3ebd
00000310: 1544 83bd dcb1 e53c 6256 32bd e560 433d
00000320: 714b 94bc ad0e a3bd 842c a23c 2616 38bc
00000330: 129f db3d 8626 13be 0107 e2bc 53d3 2dbd
00000340: a48b b1bd 6f58 c0bc e0db ec3a d435 013d
00000350: 9baa 363c 810c 6d3d c7d8 c53c 3411 54bd
00000360: a5da 883b 2b1f 96bb 2e90 abbd e393 fc3c
00000370: bad9 06be 4e53 99bc 74c0 813d cebd 39bc
00000380: 1123 5bbd c468 70bc 953e 413d ab2f 323c
00000390: 0228 973d 56aa e1bd 74e1 c2bd ea57 4fbd
000003a0: 7ee6 bfbd 6efa 9e3d 4e27 7dbd 3052 a0bd
000003b0: 70b5 74bd 9602 43bb 4b2a 0d3c 1ec1 55bd
000003c0: dfb7 e23d eee2 e8bd 85d4 0abe 9761 923d
000003d0: c59a cdbd 4844 ee3c 41df a9bd be40 243d
000003e0: 243b d33c 5fcf 8ebd 1bc6 3a3c 755e cfbd
000003f0: ce03 013e c2af 56bd cd26 41bd e39e f6bb
0.039655276 -0.08071064 -0.04952466 -0.03587191 0.002044198 0.043709107 0.061208047 0.008106219
-0.08015526 0.10370649 -0.13488455 0.24060147 0.07588988 -0.024461048 -0.1055186 0.039964076
0.002170567 0.004596597 -0.009381491 0.0030896072 -0.044231005 0.1380423 -0.1639255 0.06476467
0.108687036 -0.038921233 -0.061708387 -0.0021964693 -0.09185358 -0.0487532 0.037301045 0.017809492
0.049494214 0.12640797 -0.053629767 0.01578162 -0.03925405 -0.15470561 -0.06393089 -0.04246605
-0.094414875 -0.061560433 0.008677999 -0.0047407993 0.027645474 0.016057694 -0.08452238 0.024087861
0.09387288 -0.16786559 -0.12212428 -0.016996836 -0.0045041596 0.073130816 0.007853787 -0.025767818
0.016443625 0.13633032 -0.114837825 0.016600007 0.0005455024 0.054636046 0.039116673 -0.002952548
0.01702128 -0.1152708 -0.05948539 -0.057561446 0.041735206 0.07202412 -0.06340002 0.11662097
0.08771887 0.077602364 -0.021030022 -0.008393612 -0.12780991 0.008246444 0.07310994 -0.07474468
-0.021146586 -0.00849648 0.03507238 0.0019854156 0.03404326 0.052774068 -0.11015039 0.081246726
-0.07404293 -0.0283239 0.012036319 0.023387222 0.0073388 -0.022645656 0.04107924 0.046138745
0.06930589 -0.08358782 -0.047035057 0.036130816 -0.0966751 0.010201897 -0.0606432 0.02298228
-0.06683647 -0.061189257 0.043468565 -0.13710608 0.09722226 -0.07467084 -0.013411359 0.056871478
-0.10632314 -0.027532822 -0.007231464 0.08092615 -0.018204607 -0.035861976 0.027200611 -0.0028312432
0.07351084 -0.12870209 -0.091096744 0.09915796 -0.085986234 0.08554738 0.0056443787 -0.07793274
0.003942745 0.05443689 -0.014174563 0.031556122 0.13771927 -0.060333192 -0.034944396 0.09542891
-0.01230236 0.059928313 0.051165354 -0.043562338 -0.046078097 -0.030568365 -0.010653191 0.08360321
0.017465016 -0.11792891 0.0037063255 -0.05842606 0.01641758 0.112408064 -0.020786704 -0.024188066
0.1118273 0.059116907 0.08928433 0.014051659 -0.026946582 -0.04937553 -0.038200006 0.09095155
-0.074876115 0.13755797 0.08892094 0.009072106 -0.05991902 -0.071511656 0.043147955 0.06769001
-0.019787095 -0.029738247 -0.015114769 0.011608696 0.015605641 0.12549517 -0.016920859 -0.042000845
-0.005516909 0.059186056 0.031546015 0.020905612 0.04787208 0.01273068 -0.054660097 0.023792518
-0.026987333 0.08715701 -0.047082778 -0.026103765 0.046642236 0.018560922 0.052677132 0.029715193
0.07830321 -0.06858192 0.042763118 -0.04659701 -0.0640947 0.028038912 -0.043539412 0.047699828
-0.01810238 -0.079617836 0.019796617 -0.011235749 0.107237 -0.14370164 -0.02759123 -0.042437863
-0.086692125 -0.023479668 0.0018070899 0.031545475 0.011149074 0.057873253 0.024151219 -0.05177422
0.004176455 -0.004581352 -0.083771095 0.030832237 -0.13168994 -0.01871648 0.06335536 -0.011336757
-0.05350024 -0.014673416 0.047178824 0.010875623 0.07380678 -0.11018817 -0.09515658 -0.05062095
-0.09370135 0.077626094 -0.061805062 -0.07828176 -0.059743345 -0.002975618 0.00861604 -0.052186124
0.11070227 -0.113714084 -0.13557632 0.0714752 -0.100392856 0.029085293 -0.082945354 0.040100805
0.025785036 -0.06973147 0.011399771 -0.10125438 0.12599108 -0.05241371 -0.047156144 -0.007526265
