panna/tests/data/evaluation/test_2/saved_networks/species_0_layer_1_weights_384x12.npy (npy, 18560 bytes, 1 tensors)

array f4 [384, 12]
0.03880314 -0.029142769 -0.052332878 -0.0004974744 0.0740043 -0.00023018745 0.05128242 0.013144154
-0.024997 0.045473598 -0.0082705105 -0.03473709 0.066247776 -0.024933228 -0.060723066 0.05566002
0.013383933 -0.00076082995 -0.040848445 -0.00781748 0.010386104 0.022693101 -0.027623253 -0.006220186
0.13819474 0.014045944 -0.028304985 -0.05531294 -0.0753862 0.010290378 0.10612334 -0.085371375
-0.07419291 -0.023984132 -0.05926237 0.040525954 0.118362136 0.0063050925 -0.09217263 -0.021336794
0.054770224 0.0072629983 -0.005234951 0.004123694 -0.034548886 -0.043760948 -0.1056587 0.05699975
0.10255546 -0.024768412 -0.007097253 -0.02420094 0.023209801 -0.022828177 0.01086648 -0.044360217
-0.11446329 -0.09698376 0.048503507 0.058716234 0.08109909 -0.045812465 -0.058169317 0.0100985775
0.01499148 -0.071749136 0.006979958 0.0032297631 -0.14010358 -0.12872653 -0.05164606 0.009346976
0.12418905 -0.046381876 -0.060065694 0.040266357 -0.07111387 -0.0014085993 0.009725333 0.029007306
-0.019572558 -0.01371489 -0.023285525 0.022813534 0.076624125 0.031849094 0.03491144 -0.16531084
0.030435607 -0.06352565 0.0013396406 -0.066434026 -0.109147675 -0.09368953 0.050730564 0.09819986
-0.051582605 -0.07401573 0.011360038 -0.23016667 0.085148245 -0.08990162 0.024618398 0.05792975
-0.091284364 0.0123499315 0.021027548 0.074813776 -0.011612649 -0.08253331 0.12547326 -0.19370069
0.076670475 -0.039523408 -0.04831679 -0.040721823 -0.038147897 -0.016454563 0.05599086 0.04286931
0.00906083 -0.006240709 0.108673684 -0.09428041 0.08110363 -0.0056900997 -0.038953807 0.064791255
-0.1443766 0.029882982 0.04444279 -0.049788956 0.12580562 -0.020524628 0.079066694 -0.103373565
0.062496986 -0.006141113 -0.054811712 -0.044932198 -0.08888588 -0.118322514 -0.04308268 -0.08107995
0.06149987 -0.012118579 -0.075664625 -0.00010936522 -0.07889563 0.02765218 0.09891884 -0.041221958
-0.12475955 -0.14757176 0.018956637 0.009239658 -0.0025049457 0.0040200613 0.029283926 -0.11965797
-0.058914147 -0.07551536 -0.090814 0.030555453 -0.04422356 -0.07090325 0.059447736 -0.005167108
0.01909744 0.0858741 -0.027529227 -0.02532158 -0.008138016 0.03817492 -0.06044539 -0.07254914
-0.03634403 -0.037745886 -0.08344624 0.0022902668 0.120011754 -0.004267611 -0.052488334 0.010977739
0.012539704 0.007056898 0.010349046 -0.03223246 -0.061226606 -0.0458901 0.012696319 -0.07597024
-0.06462012 -0.11497413 0.08821666 -0.13373327 0.0038233022 0.006963385 -0.052802294 -0.058742825
-0.042771064 0.0675676 -0.021147339 0.043325644 0.02757799 -0.02677335 -0.010410825 -0.08483964
0.017198091 -0.08170491 -0.021316407 0.07061493 -0.018476075 -0.026945056 -0.07344661 -0.0017336102
0.033133857 -0.05581103 0.0014449111 0.014172374 -0.059046093 -0.08946796 -0.09452977 0.07779986
-0.10174447 0.010835706 0.04535718 0.049862027 0.048178267 -0.0052345423 -0.0621925 0.01779925
0.0827251 0.034685567 -0.057597104 -0.015330376 -0.121865295 -0.044076767 -0.056578543 0.044723768
0.028702313 -0.036651395 -0.01909717 -0.016528163 0.04822156 0.053223334 0.045849364 0.017605964
-0.017617986 -0.009903121 0.067873 -0.06758222 0.01731829 -0.045953672 0.050339535 -0.11386714
00000000: 0bf0 1e3d d1bc eebc 005b 56bd f168 02ba
00000010: 918f 973d 795e 71b9 840d 523d 945a 573c
00000020: 82c6 ccbc 8642 3a3d 0981 07bc 7b48 0ebd
00000030: eaac 873d c540 ccbc c0b8 78bd c3fb 633d
00000040: 4948 5b3c 6f72 47ba b350 27bd e314 00bc
00000050: 7a2a 2a3c e2e6 b93c 294a e2bc b4d2 cbbb
00000060: ec82 0d3e f620 663c dbdf e7bc d28f 62bd
00000070: 1464 9abd f998 283c 3257 d93d 30d7 aebd
00000080: 74f2 97bd 5f7a c4bc 19bd 72bd 8bfe 253d
00000090: d967 f23d f39a ce3b 01c5 bcbd 80ca aebc
000000a0: be56 603d 72fe ed3b f489 abbb 0d20 873b
000000b0: 2283 0dbd ae3e 33bd 9763 d8bd 9278 693d
000000c0: 9908 d23d 20e7 cabc 1390 e8bb 0d41 c6bc
000000d0: 7b22 be3c 2802 bbbc 5209 323c 0fb3 35bd
000000e0: bb6b eabd 6c9f c6bd 9dab 463d 6f80 703d
000000f0: 4817 a63d daa5 3bbd f342 6ebd 8174 253c
00000100: d39e 753c 36f1 92bd 22b8 e43b 6faa 533b
00000110: 5077 0fbe e3d0 03be d28a 53bd 0f24 193c
00000120: d456 fe3d ecfa 3dbd 7207 76bd 56ee 243d
00000130: 26a4 91bd c0a0 b8ba 0157 1f3c bba0 ed3c
00000140: a156 a0bc 6bb4 60bc 49c1 bebc 73e3 ba3c
00000150: 1ced 9c3d 3274 023d 4cff 0e3d 3f47 29be
00000160: 1854 f93c bc19 82bd e196 af3a 900e 88bd
00000170: d188 dfbd 4ce0 bfbd daca 4f3d 021d c93d
00000180: 4848 53bd 8f95 97bd 741f 3a3c d0b0 6bbe
00000190: 3462 ae3d 571e b8bd 86ac c93c bf47 6d3d
000001a0: 4cf3 babd 5e57 4a3c f741 ac3c f737 993d
000001b0: fb42 3ebc 3907 a9bd 107c 003e 7959 46be
000001c0: 6905 9d3d 4ce3 21bd d4e7 45bd edcb 26bd
000001d0: f840 1cbd b8cb 86bc ac56 653d bb97 2f3d
000001e0: e073 143c dd7e ccbb 4f90 de3d 1616 c1bd
000001f0: a919 a63d 0474 babb 078e 1fbd 47b1 843d
00000200: 76d7 13be 28cd f43c a509 363d 81ef 4bbd
00000210: 30d3 003e 4423 a8bc b8ed a13d 85b5 d3bd
00000220: d7fc 7f3d 643b c9bb 3f82 60bd d30a 38bd
00000230: cd09 b6bd 1353 f2bd 7777 30bd 3f0d a6bd
00000240: 4ae7 7b3d 018d 46bc 0ef6 9abd 015b e5b8
00000250: 0894 a1bd d386 e23c f695 ca3d 5bd8 28bd
00000260: ef81 ffbd 0d1d 17be f34a 9b3c ef61 173c
00000270: 042a 24bb b8ba 833b d8e4 ef3c 3d0f f5bd
00000280: f64f 71bd cca7 9abd b1fc b9bd 6e4f fa3c
00000290: c323 35bd b935 91bd 787f 733d d850 a9bb
000002a0: 3c72 9c3c c3de af3d f984 e1bc 346f cfbc
000002b0: 5055 05bc 4e5d 1c3d 9695 77bd a594 94bd
000002c0: 7add 14bd 6e9b 1abd dde5 aabd 4d18 163b
000002d0: b9c8 f53d 51d7 8bbb 02fe 56bd f9db 333c
000002e0: 5573 4d3c 8d3d e73b 0c8f 293c 2f06 04bd
000002f0: c0c8 7abd 42f7 3bbd 3904 503c 4996 9bbd
00000300: 8e57 84bd 8f77 ebbd f0aa b43d 60f1 08be
00000310: 5e90 7a3b 1b2d e43b 3847 58bd 519c 70bd
00000320: b630 2fbd e260 8a3d 2f3d adbc 3b76 313d
00000330: 3deb e13c c953 dbbc 2a92 2abc 68c0 adbd
00000340: 03e3 8c3c e754 a7bd bf9f aebc 8f9e 903d
00000350: 235b 97bc e1bb dcbc 2d6b 96bd 4e3a e3ba
00000360: 5eb7 073d 1b9a 64bd 2c63 bd3a 3f33 683c
00000370: 51da 71bd fa3a b7bd d398 c1bd 8855 9f3d
00000380: 685f d0bd 3f88 313c 73c8 393d 203c 4c3d
00000390: 9356 453d 8686 abbb 90bd 7ebd bccf 913c
000003a0: c76b a93d 7412 0e3d f1ea 6bbd 422c 7bbc
000003b0: 8394 f9bd d789 34bd e7be 67bd 4530 373d
000003c0: 1d21 eb3c c61f 16bd ab71 9cbc 1266 87bc
000003d0: f883 453d b600 5a3d 8bcc 3b3d 623a 903c
000003e0: 9853 90bc b340 22bc 0001 8b3d 8c68 8abd
000003f0: 16df 8d3c eb39 3cbd d430 4e3d 2d33 e9bd
