panna/tests/data/evaluation/test_2/saved_networks/species_0_layer_2_weights_12x6.npy (npy, 416 bytes, 1 tensors)

array f4 [12, 6]
000000 96 5d 2c 3c 7f 90 9e 3d 18 91 43 bd 43 d7 94 ba
       0.0105203595 0.07742404 -0.047745794 -0.0011355657
000010 ee 34 b1 bc cc 58 7b 3d ee a3 b7 3d 8b 93 b9 bc
       -0.021631684 0.06136398 0.08966814 -0.022653362
000020 b8 c5 bf 3d d1 e3 f7 3d f4 d6 42 bc f8 43 c9 bd
       0.09363884 0.121039994 -0.011892069 -0.09827417
000030 a1 a6 02 3d 55 b0 ac 3d c6 00 e3 bd 22 82 51 bd
       0.03189719 0.0843207 -0.11084132 -0.051149495
000040 92 a8 f8 bd dd 7b 74 3d 6c b3 24 3c 4b e2 02 3e
       -0.12141527 0.059688438 0.010052543 0.12781636
000050 54 b7 09 3d b2 30 fe bd 84 18 87 bd ec d5 ef 3c
       0.0336221 -0.12411632 -0.06596473 0.02927681
000060 48 a4 33 3e 7b 58 50 3d 07 1e 42 3d e1 ef 21 be
       0.17543137 0.05086563 0.047391918 -0.15814163
000070 c2 41 0c 3e 44 3e d4 bd ce 9f 98 3d 0e f7 af bd
       0.1369696 -0.10363439 0.07452355 -0.08592044
000080 c1 0c fe 3d f5 fc da bd 1b b3 11 3e 6c d5 0c be
       0.12404776 -0.10692779 0.1422848 -0.13753289
000090 b7 cb 55 3e f3 4a 61 3d 22 f5 b0 bd ff 02 8f bd
       0.20878492 0.055003118 -0.086405054 -0.06982993
0000a0 df d6 73 3c cf d7 97 3d c3 df 23 3e 6c 50 d3 3d
       0.014882772 0.07414209 0.16003327 0.10318074
0000b0 1a 8f 7c bd 15 c8 90 3c 21 a3 23 bd fd 2c 60 bd
       -0.06165991 0.017673532 -0.039950494 -0.054730404
0000c0 63 4e 2c bd 8a fa d0 3d d4 e2 63 3a 2f 7c fd bd
       -0.042066943 0.102040365 0.0008693163 -0.12377202
0000d0 f1 de 78 bb 80 02 c3 3d 06 70 31 bd 27 0b 30 be
       -0.003797468 0.09521961 -0.043319725 -0.17191754
0000e0 c2 21 c4 3d 50 c3 9d bd f5 b3 b1 bb 34 31 3b 3e
       0.09576751 -0.077032685 -0.005423064 0.18280488
0000f0 b6 dc be 3d 6b b2 2b be 18 6d 7f bd 67 b6 cb 3c
       0.09319441 -0.1676728 -0.0623599 0.02486725
000100 d3 cb bb bd 88 ab 1d 3e d1 f5 4e 3e 15 c6 bc b9
       -0.09169736 0.15397465 0.20210959 -0.00036005737
000110 db b4 b8 3b 5c e1 04 3e 1c 7e 40 3d d5 8a ee bc
       0.005636794 0.12976593 0.046995267 -0.029118935
