panna/tests/data/evaluation/test_2/saved_networks/species_2_layer_2_weights_12x6.npy (npy, 416 bytes, 1 tensors)

array f4 [12, 6]
0.05549818 0.077091716 -0.0057799555 -0.12029194 0.07410833 0.15589564 0.082064554 0.003200801
-0.030509342 -0.06793855 0.08509521 0.04431111 0.12829332 -0.10114328 0.021474224 0.15428129
0.03693802 -0.0036027813 -0.18258703 0.16526175 0.078376606 -0.09967299 -0.05266816 0.01477627
0.08942527 -0.14027171 -0.03427957 -0.080628715 0.15410356 0.06491929 -0.045454316 -0.15099305
0.07695111 -0.053457756 0.12971777 0.09339671 0.13468225 -0.014545013 -0.049596827 -0.16520673
0.016178032 -0.0378913 -0.108391896 -0.12390387 0.10045068 0.024705816 0.054671966 0.058943603
0.01969683 -0.022459988 -0.012541507 0.00226509 -0.11408698 -0.1523531 -0.1427788 -0.041132186
0.048530847 0.13647674 -0.09035228 -0.035072863 -0.0732737 -0.14198872 0.09775179 0.029467707
-0.07743872 0.13572206 0.07548267 0.16615187 0.11376686 -0.025078362 -0.12137632 0.079545856
00000000: 0f52 633d 43e2 9d3d c865 bdbb 9f5b f6bd
00000010: 1cc6 973d 1ba3 1f3e 7611 a83d 88c4 513b
00000020: baee f9bc 5e23 8bbd 6646 ae3d 917f 353d
00000030: 535f 033e 3524 cfbd b6ea af3c eafb 1d3e
00000040: 524c 173d a41c 6cbb 18f8 3abe 603a 293e
00000050: ea83 a03d 5a21 ccbd 92ba 57bd 2b18 723c
00000060: 9924 b73d 63a3 0fbe bc68 0cbd ab20 a5bd
00000070: 53cd 1d3e 68f4 843d 4e2e 3abd ec9d 1abe
00000080: 8b98 9d3d 85f6 5abd bcd4 043e c646 bf3d
00000090: 25ea 093e 354e 6ebc 0b26 4bbd f42b 29be
000000a0: cb87 843c e833 1bbd 92fc ddbd 50c1 fdbd
000000b0: 16b9 cd3d da63 ca3c b6ef 5f3d d96e 713d
000000c0: 3f5b a13c 02fe b7bc e57a 4dbc e771 143b
000000d0: 6fa6 e9bd 7302 1cbe 9b34 12be 397a 28bd
000000e0: 48c8 463d 8fc0 0b3e 9e0a b9bd 90a8 0fbd
000000f0: 8610 96bd 7e65 11be 1732 c83d 4366 f13c
00000100: 3198 9ebd b9fa 0a3e a896 9a3d b723 2a3e
00000110: 99fe e83d 2371 cdbc 2694 f8bd f0e8 a23d
