panna/tests/data/train/test_1/saved_networks/species_2_layer_2_weights_12x6.npy (npy, 416 bytes, 1 tensors)

array f4 [12, 6]
0.05613935 0.043490052 -0.06028664 0.0043717176 0.08047776 0.06497912 -0.029208139 0.017190382
-0.017094538 -0.15311341 -0.14842813 -0.029142097 0.07153158 -0.08146286 0.069604635 0.12575008
0.084481165 -0.06053321 0.021625593 0.129402 -0.066526294 -0.0033257753 0.029930234 -0.05688286
-0.0599436 0.053334594 0.12445752 0.047249794 0.10103454 -0.039248273 0.04066305 -0.08766548
0.12059693 -0.002719 -0.16002032 -0.10568969 -0.013083532 0.120170966 0.14565189 0.044152573
0.10463457 -0.008056715 -0.0972691 0.028274491 0.15918697 0.05196552 -0.062759206 0.09260453
-0.11830473 0.03467822 0.1607504 0.14525105 -0.03765647 0.05208528 0.14284469 -0.10120507
0.10464768 0.11113252 -0.055183217 -0.08226812 0.015160605 0.017322853 0.10230784 0.1324506
0.1217394 0.0039736778 0.12334384 -0.03318 -0.08088633 0.00094656646 -0.0073574334 0.045722052
00000000: 60f2 653d a022 323d 20ef 76bd a040 8f3b
00000010: 86d1 a43d c613 853d e845 efbc d8d2 8c3c
00000020: d809 8cbc c3c9 1cbe 8bfd 17be 68bb eebc
00000030: 267f 923d 00d6 a6bd e08c 8e3d a1c4 003e
00000040: 7604 ad3d acf1 77bd 2828 b13c f581 043e
00000050: f03e 88bd 40f5 59bb 4030 f53c 00fe 68bd
00000060: 6c87 75bd 6075 5a3d 96e3 fe3d 0089 413d
00000070: 32eb ce3d ccc2 20bd 4c8e 263d f689 b3bd
00000080: 86fb f63d 4031 32bb 5edc 23be d673 d8bd
00000090: 505c 56bc 321c f63d c525 153e 54d9 343d
000000a0: a64a d63d 5000 04bc 0635 c7bd e89f e73c
000000b0: e901 233e ccd9 543d e687 80bd 72a7 bd3d
000000c0: c049 f2bd c00a 0e3d c19b 243e b1bc 143e
000000d0: ac3d 1abd 6057 553d e145 123e 9b44 cfbd
000000e0: 8651 d63d 7299 e33d cc07 62bd 307c a8bd
000000f0: 3064 783c a8e8 8d3c c686 d13d 21a1 073e
00000100: 8252 f93d a035 823b b29b fc3d c0e7 07bd
00000110: bba7 a5bd 0023 783a a016 f1bb 0c47 3b3d
