panna/tests/data/train/test_1/saved_networks/species_1_layer_2_weights_12x6.npy (npy, 416 bytes, 1 tensors)

array f4 [12, 6]
0	0xbe27e250	-0.16394925
1	0x3d36fef4	0.044676736
2	0xbdeb1a2b	-0.114796005
3	0x3e03362d	0.12813635
4	0xbe12b6fb	-0.14327614
5	0x3e27ada9	0.1637484
6	0xbe16bd46	-0.1472064
7	0xbdd02840	-0.10163927
8	0xbdfbb44b	-0.122902475
9	0xbe22a276	-0.15882286
10	0xbe0a8273	-0.13526325
11	0x3d42a4f4	0.047520593
12	0xbda606b0	-0.08106744
13	0x3d17fe8c	0.03710799
14	0x3e1cc555	0.15309651
15	0xbe1c8086	-0.15283403
16	0xbe0e5cfb	-0.13902657
17	0x3dec505a	0.11538763
18	0xbdad98e6	-0.08476429
19	0xbdb9efdb	-0.09078952
20	0x3cf50618	0.029910132
21	0xbcc1e040	-0.023666501
22	0xbda8caf6	-0.08241837
23	0x3d05df14	0.032683447
24	0x392ef400	0.0001668483
25	0x3e0fd4a9	0.14045967
26	0x3cfea000	0.031082153
27	0x3db6ed5a	0.0893199
28	0xbce77cc0	-0.028257728
29	0x3d9527e6	0.07283001
30	0xbe09b593	-0.13448171
31	0x3be38500	0.006943345
32	0x3dba99c6	0.09111361
33	0x3dd77ee2	0.10522248
34	0xbd0a3c20	-0.033748746
35	0x3dd63bfa	0.10460658
36	0x3e081679	0.13289823
37	0xbda02096	-0.07818715
38	0x3dbd7eba	0.09252687
39	0x3d9db6a6	0.07700853
40	0x3ce78b58	0.028264686
41	0x3e20ab51	0.15690352
42	0xbda92b26	-0.08260183
43	0x3e16d669	0.14730228
44	0xbd125094	-0.035721377
45	0xbd72c9ec	-0.0592746
46	0xbd8a9af0	-0.06767833
47	0xbd562440	-0.052280664
48	0x3cb9b598	0.022669598
49	0xbdf2b460	-0.1185081
50	0x3dadea2a	0.08491929
51	0xbe1b12f8	-0.15143955
52	0xbd73e8e0	-0.05954826
53	0x3dcb1ab2	0.09917201
54	0x3de2f416	0.11081712
55	0x3d99ba20	0.07506204
56	0xbdeda910	-0.11604512
57	0x3df711a6	0.12063913
58	0xbdf9b530	-0.12192762
59	0xbcd37898	-0.02581434
60	0xbd873c16	-0.06603257
61	0x3daba252	0.083805695
62	0x3c52acb0	0.012858555
63	0xbdf0b336	-0.11752932
64	0x3dad7146	0.08468871
65	0x3d826580	0.06367016
66	0x3dbcbba2	0.092154756
67	0x3d869350	0.065710664
68	0x3c9e7dc0	0.019347072
69	0xbe01e7e3	-0.12686114
70	0x3e103e33	0.14086227
71	0xbdd03440	-0.10166216
