panna/tests/data/train/test_1/saved_networks/species_2_layer_1_weights_384x12.npy (npy, 18560 bytes, 1 tensors)

array f4 [384, 12]
00000000: 80c9 b7bb 80c6 56ba 20ee 913c f4c0 943c
00000010: 2604 23bd 0662 63bd 46be 2dbd eb48 1ebd
00000020: b03e 0c3d 8015 d6bc d654 3dbd dbb2 54bd
00000030: 2652 143d eb4a 37bd 405e d33c 26a9 6e3d
00000040: b65e f4bc 8062 8c3c 6cec a63c c823 a8bd
00000050: cbda 62bd 3544 973d 1a63 0b3d cc6f cbbc
00000060: 1bfc 55bd fb94 79bd 58eb 09bc f013 14bd
00000070: 00d5 c0b9 a8c0 18bc 9095 263d 1e94 9dbd
00000080: 14da bf3c f308 89bd cc5f e0bc b49f a73c
00000090: b4b8 983c 54d6 a13c 50cb 163d 5a19 5d3d
000000a0: 12cf 7f3d 5071 8bbd b0d3 bb3b 4089 11bc
000000b0: 4052 03bc 6646 393d 6cb2 cd3c 8693 8bbd
000000c0: 7a31 043d 2c5f db3c 280a 3f3c 2803 78bc
000000d0: 689e 013c eb03 8dbd 5408 bc3c 0024 7c3a
000000e0: 54f9 e73c 30c4 7cbd fabe 7c3d 63aa 84bd
000000f0: 3640 2a3d d859 6e3c 0b6d 09bd fb00 a4bd
00000100: d895 29bc aa9e 7a3d d004 f03b 568a 5fbd
00000110: c0fc 3dbc 281e 0c3c 4bb0 47bd 2b10 69bd
00000120: c6c5 61bd a5ac 873d e685 18bd 4073 c93c
00000130: ac8a aabc 0034 c3bb 716e 823d 86ed 45bd
00000140: a5af 9f3d b537 a13d 6ad8 473d 9b9b 943d
00000150: 20c1 fcbc ac88 8a3c bb41 23bd ccd1 bbbc
00000160: 184d 85bd 6c1b fe3c 9b94 4fbd e017 fcbc
00000170: 81a7 9b3d d08d 88bd b903 993d 3bc1 973d
00000180: e610 793d 0061 76bd b0f0 80bd 2618 1d3d
00000190: 60d9 7d3b b365 83bd 2a6a 323d 4b9e 04bd
000001a0: a170 9e3d 20d6 ce3c 39bd 863d 80f8 cabc
000001b0: c0fe ebbc 687d 643c 70cc 97bd 79e2 913d
000001c0: b1a1 a23d ea1f 073d 2b46 83bd c98f a73d
000001d0: 6010 aa3c aa08 4f3d 6c2a d03c 86cb 2a3d
000001e0: cc0c b4bc 0066 a7bc 26e1 73bd 0afe 773d
000001f0: 0078 a2bb 48a9 aabd 5bfd 4ebd 593a 833d
00000200: a099 2cbb 6bdb 8dbd a013 cc3c e040 6dbd
00000210: 2023 1bbd d199 823d 9e37 a1bd c01b 6ebc
00000220: 0b05 0bbd 28a6 1a3c f229 473d 8aa6 6a3d
00000230: 3da6 983d 6869 6abc d408 813c ecb5 eebc
00000240: aaa1 5c3d 8083 8abb 7a9e 633d 566a b9bc
00000250: 6076 8bbd 5035 f33b cc9d 99bc e6f6 0e3d
00000260: 8b86 76bd 2cc9 b83c a24a 343d 6b20 1abd
00000270: 40f0 b03c f678 65bd db8b 1ebd 682f 6abc
00000280: 58e9 1a3c 667a 1abd e3e5 8e3d 4578 a23d
00000290: 4e5b 92bd e8b8 53bc 06bc 6cbd b443 973c
000002a0: 34c3 b33c c275 553d d01c 0bbd dba3 03bd
000002b0: 7ebc 99bd 5ae1 793d 9053 05bd b4a7 973c
000002c0: 3ad7 333d 4aed 7a3d 94e8 8f3c 02a1 343d
000002d0: 76ca 6bbd 202b cb3c cbc7 98bd a002 123b
000002e0: ca0b 473d 9b84 2cbd 3010 0a3d 582e 29bc
000002f0: 18d6 0f3c 40f7 ff3a 09df a33d b463 e73c
00000300: 00c6 b63b b6ee 19bd 8a03 573d 3248 523d
00000310: 8097 a2bb 36b4 b5bc 92e1 7c3d 0ad8 723d
00000320: 8b7c 1cbd 83b8 97bd 15c3 8c3d 0c39 cd3c
00000330: 2b02 2bbd 1686 82bd 4b07 93bd f6c4 bfbc
00000340: 3040 27bd d00d f53b a87c 35bc c6e0 31bd
00000350: d364 953d 267f 62bd 96dc aebc 2b17 0abd
00000360: c0fc 633c 2c1b fbbc d220 703d 3b25 5fbd
00000370: e07a abbc 70c7 95bd 3b25 863d d440 a83c
00000380: 300a d53b d333 8bbd 6dba 8f3d 96fa 26bd
00000390: 0eb3 93bd e086 bebc 905f 0cbd 1aac 103d
000003a0: 8207 7c3d f041 41bd 565b 8dbd 0b6f 8dbd
000003b0: ca16 533d 9a99 713d b611 22bd 7365 a7bd
000003c0: cdd7 973d 0b1e 86bd 30db 0a3d c0aa b6bc
000003d0: 0cb4 943c 3087 ef3b c0bb 8c3c c2c7 383d
000003e0: 4089 ce3a 6c2d d63c 0074 ba3c fb7a 6cbd
000003f0: ccdc f7bc ca2a 643d cafe 1e3d 4a2d 463d
-0.0056087375 -0.0008193031 0.017813742 0.018158413 -0.039798878 -0.055513404 -0.042417787 -0.03864376
0.03423947 -0.026133299 -0.046223484 -0.051928382 0.036211155 -0.04474918 0.025801778 0.05826678
-0.029830318 0.017136812 0.020376407 -0.0820995 -0.05538444 0.07386056 0.034030057 -0.024833582
-0.05224238 -0.060933094 -0.008417927 -0.036151826 -0.0003677979 -0.009323277 0.040669978 -0.07694267
0.023419417 -0.0669116 -0.02738943 0.020461895 0.01864276 0.01975552 0.036814988 0.053979255
0.062453337 -0.06808722 0.005732022 -0.008882821 -0.008015215 0.045233153 0.025109492 -0.06815247
0.032273747 0.02677878 0.011660136 -0.015137471 0.007911302 -0.06885513 0.02295319 0.00096184015
0.028317131 -0.061710536 0.061705567 -0.06477811 0.041565143 0.014547788 -0.033551257 -0.080079995
-0.010350667 0.06118647 0.0073247924 -0.054575287 -0.011595905 0.008552112 -0.04875211 -0.056900185
-0.055120252 0.06624726 -0.03723707 0.024591088 -0.020818077 -0.0059571266 0.06368721 -0.048322223
0.077971734 0.078719534 0.048790373 0.07256242 -0.030853808 0.016910873 -0.039857607 -0.022927187
-0.06508845 0.031018935 -0.05067883 -0.030773103 0.07600308 -0.066676736 0.07471413 0.07409903
0.06080713 -0.0601511 -0.062959075 0.038353108 0.0038734302 -0.06415882 0.043558277 -0.032377522
0.07736326 0.025248587 0.0657906 -0.024776697 -0.028807998 0.013945915 -0.0741204 0.07123274
0.079409964 0.03298942 -0.06409868 0.08181722 0.020759761 0.050545372 0.025410853 0.041698
-0.021978758 -0.02043438 -0.05954089 0.060545005 -0.004958153 -0.08333069 -0.050534587 0.06407613
-0.0026336685 -0.06926616 0.024911702 -0.057923198 -0.037875295 0.063769944 -0.07871936 -0.014532983
-0.033940356 0.009439029 0.048623987 0.05728773 0.074535824 -0.014307357 0.01575128 -0.029139481
0.053865112 -0.004227102 0.055571057 -0.022633713 -0.068096876 0.007422127 -0.018752001 0.03490343
-0.060186904 0.022556864 0.044016488 -0.037628572 0.021598935 -0.05602356 -0.038707595 -0.014293529
0.009455048 -0.037714384 0.06977441 0.07933096 -0.07146321 -0.012922503 -0.0577965 0.0184649
0.021943666 0.052114256 -0.033963025 -0.032138687 -0.07506655 0.061005928 -0.032550395 0.018512584
0.043906428 0.061261453 0.017566957 0.04409886 -0.05756613 0.024800837 -0.074599825 0.0022279397
0.048595227 -0.04211865 0.033706844 -0.010325991 0.008779071 0.0019528642 0.08001525 0.028245784
0.0055778027 -0.037581168 0.05249361 0.051338382 -0.004961908 -0.022180658 0.061738558 0.059288062
-0.03820471 -0.0740824 0.068731464 0.025051616 -0.041750114 -0.06373231 -0.071791254 -0.023409348
-0.0408327 0.007478453 -0.011077084 -0.04342725 0.07294621 -0.05529704 -0.021345418 -0.0337135
0.013915241 -0.030652605 0.05862505 -0.054478865 -0.020932615 -0.0731343 0.0655007 0.020538725
0.0065014586 -0.06796994 0.0701798 -0.04076632 -0.07211886 -0.023257673 -0.034270823 0.03532038
0.061530598 -0.047182024 -0.069021866 -0.069059454 0.051535405 0.058984376 -0.03956767 -0.08173647
0.074142076 -0.06548699 0.03390044 -0.022298217 0.01815226 0.007309817 0.01717937 0.04511238
0.0015757456 0.026144706 0.022760391 -0.05773447 -0.030256651 0.05570487 0.038817205 0.048383035
