panna/tests/data/train/test_1/saved_networks/species_3_layer_1_weights_384x12.npy (npy, 18560 bytes, 1 tensors)

array f4 [384, 12]
-0.08285771 -0.11723733 0.0021899447 -0.017338734 0.13250956 -0.0461707 -0.003497126 -0.029165475
0.035055567 0.037938196 -0.018583916 -0.052102637 -0.1313306 -0.11118251 0.10560249 -0.0055164606
0.063859284 0.027931279 0.04043991 -0.032002967 0.03354538 0.15381189 -0.05730117 -0.08288946
-0.021011729 0.014468357 0.010736678 0.016288856 0.078454144 0.023564445 -0.029980145 0.06281692
-0.057908494 0.13584092 -0.013854705 -0.017168032 -0.036754802 -0.02034275 -0.0014541782 -0.016222749
-0.028464139 -0.021183247 -0.037935283 -0.013942923 -0.018567557 0.048027128 -0.07930001 -0.037207663
-0.001835521 -0.101381704 0.030008662 0.04160796 -0.051218994 0.07674986 0.05549212 -0.037384182
-0.018225573 -0.1940464 0.08033271 -0.07302124 -0.0792177 -0.09626662 0.14787383 -0.08951136
-0.33593956 0.19097643 -0.019990321 -0.018273031 -0.122699276 -0.4567653 0.15710919 -0.0649068
-0.06850251 -0.060589522 0.0849558 -0.026779061 -0.047853302 0.10105657 0.0065658353 -0.056005917
-0.023859536 -0.10282025 0.07712047 -0.029917434 -0.07680903 -0.0026287343 0.014768503 -0.034928262
0.0428971 -0.021329306 0.033784635 -0.08000257 -0.061782576 -0.03462185 -0.025768135 -0.027640995
-0.045277975 0.014192723 -0.035894774 -0.043670677 -0.041430853 -0.008919083 0.08028015 0.03112638
0.025684178 -0.02081374 0.0052596927 -0.041174352 0.06404842 -0.039392292 -0.06653468 0.044986434
-0.012595832 -0.056668203 -0.022638679 0.033752717 -0.016127087 0.079442985 -0.052918833 0.042508937
-0.08049101 -0.05131036 -0.0097210035 0.025147535 -0.013236403 0.053317554 -0.023922823 -0.0642307
-0.0649064 0.060144745 0.04766222 0.076510556 0.0063979253 0.027238943 0.043895267 0.041354395
-0.07360353 0.07058073 0.060165472 0.02375374 0.022887923 0.043527566 -0.028777681 0.01996696
0.020300902 -0.0024725571 -0.03577298 0.06210462 0.04242102 -0.044746876 0.02903054 -0.057099663
-0.07805048 -0.044058226 0.024748981 0.052582122 -0.07775937 -0.011011638 -0.07620172 -0.02227205
-0.0055036545 -0.017649017 0.016236208 0.017339267 -0.05026738 0.048187993 0.0006938949 0.064397894
0.0042462945 -0.016373433 -0.033416353 0.06833436 0.063682385 0.06658945 0.024817884 -0.051572245
0.070407815 -0.044302106 0.0705963 -0.01187887 0.08185018 -0.06195184 -0.07559391 0.072339185
0.049180113 0.08051742 -0.07851251 0.052154608 0.05565823 0.013661347 -0.06936618 -0.015170574
-0.08084687 0.014426112 0.054591604 0.07477798 0.075303994 0.049408235 0.08288396 0.061336465
0.007006645 0.07483926 0.02331891 -0.056921065 -0.023537062 0.020781077 -0.045234323 0.07532325
0.048285164 -0.024600051 0.027142823 0.023500405 -0.045022093 -0.017665707 -0.048714243 -0.03687805
0.045061864 -0.021463774 -0.059844494 -0.08021574 0.07953403 -0.051561635 0.06564053 -0.0009662509
0.048853226 -0.0009909049 0.07435254 -0.0021312237 0.001996912 -0.06193654 0.04322555 0.07342645
-0.040163916 -0.021315657 0.07086959 -0.06217432 0.039276384 0.013499461 -0.06540853 0.025411926
0.056968786 -0.068427846 0.046076275 0.043369435 0.03267467 0.054692484 0.08230897 0.028364278
0.008780159 -0.06086596 0.073306926 0.023499012 0.06341318 0.04512409 -0.0046201944 0.05652041
00000000: 4eb1 a9bd 201a f0bd 2d85 0f3b f609 8ebc
00000010: 96b0 073e 7d1d 3dbd 0a30 65bb 6fec eebc
00000020: 6d96 0f3d 1565 1b3d 4c3d 98bc 9369 55bd
00000030: 877b 06be a8b3 e3bd 1e46 d83d 6dc3 b4bb
00000040: a8c8 823d 23d0 e43c 52a4 253d 8b15 03bd
00000050: e166 093d dd80 1d3e a2b4 6abd f3c1 a9bd
00000060: ca20 acbc b00c 6d3c e4e8 2f3c 3570 853c
00000070: 91ac a03d 390a c13c ec98 f5bc 28a6 803d
00000080: 7531 6dbd e219 0b3e d8fe 62bc f9a3 8cbc
00000090: 348c 16bd d7a5 a6bc 209a beba 92e5 84bc
000000a0: a02d e9bc 7d88 adbc 0762 1bbd dc70 64bc
000000b0: fd1a 98bc 18b8 443d 0b68 a2bd 1067 18bd
000000c0: dd95 f0ba 36a1 cfbd bad4 f53c 1c6d 2a3d
000000d0: 02cb 51bd 082f 9d3d b54b 633d 2820 19bd
000000e0: cc4d 95bc 19b4 46be 7a85 a43d 298c 95bd
000000f0: e43c a2bd 6f27 c5bd 3d6c 173e bb51 b7bd
00000100: 4500 acbe 538f 433e bec2 a3bc 53b1 95bc
00000110: c249 fbbd 24dd e9be 3be1 203e dbed 84bd
00000120: 0b4b 8cbd b82c 78bd 4efd ad3d c35f dbbc
00000130: d301 44bd bff6 ce3d 3826 d73b 7666 65bd
00000140: 1375 c3bc 6c93 d2bd 56f1 9d3d 6815 f5bc
00000150: 0d4e 9dbd d846 2cbb 97f7 713c f010 0fbd
00000160: dfb4 2f3d ccba aebc c261 0a3d 63d8 a3bd
00000170: ba0f 7dbd a4cf 0dbd b217 d3bc 5e6f e2bc
00000180: 6675 39bd 9888 683c 6606 13bd 06e0 32bd
00000190: 66b3 29bd 5821 12bc eb69 a43d c0fc fe3c
000001a0: a067 d23c 9481 aabc 8059 ac3b 70a6 28bd
000001b0: d12b 833d d059 21bd 5643 88bd b243 383d
000001c0: c05e 4ebc eb1c 68bd c074 b9bc 4a40 0a3d
000001d0: f41c 84bc 01b3 a23d 6bc1 58bd da1d 2e3d
000001e0: 78d8 a4bd d02a 52bd d844 1fbc 3402 ce3c
000001f0: 80dd 58bc 8263 5a3d ccf9 c3bc 638b 83bd
00000200: a6ed 84bd 565a 763d 7639 433d 91b1 9c3d
00000210: b0a5 d13b 3424 df3c 86cb 333d 3a63 293d
00000220: 73bd 96bd a18c 903d 1270 763d 3497 c23c
00000230: 747f bb3c f649 323d 2cbf ebbc c091 a33c
00000240: 144e a63c a00a 22bb b086 12bd 6a61 7e3d
00000250: aac1 2d3d 8048 37bd 74d1 ed3c 56e1 69bd
00000260: eed8 9fbd 6676 34bd 60be ca3c 5a60 573d
00000270: 4e40 9fbd 286a 34bc a60f 9cbd e073 b6bc
00000280: 0058 b4bb ac94 90bc cc01 853c 140b 8e3c
00000290: 2be5 4dbd c660 453d 80e6 353a 0be3 833d
000002a0: 8024 8b3b 9421 86bc 96df 08bd e3f2 8b3d
000002b0: e96b 823d 0d60 883d e04e cb3c 6b3d 53bd
000002c0: f931 903d 2076 35bd cb94 903d 989f 42bc
000002d0: 11a1 a73d 36c1 7dbd fbd0 9abd 9126 943d
000002e0: 1671 493d 51e6 a43d 2bcb a0bd 12a0 553d
000002f0: e2f9 633d d8d3 5f3c db0f 8ebd 008e 78bc
00000300: 0b93 a5bd 805b 6c3c 729b 5f3d 3325 993d
00000310: fb38 9a3d 4a60 4a3d 11bf a93d f23b 7b3d
00000320: 0098 e53b 5345 993d 4c07 bf3c 1026 69bd
00000330: ccd0 c0bc 143d aa3c a047 39bd 1343 9a3d
00000340: aac6 453d 0c86 c9bc a05a de3c ec83 c03c
00000350: 1669 38bd acb7 90bc 9688 47bd 700d 17bd
00000360: ca92 383d ccd4 afbc 801f 75bd 2648 a4bd
00000370: bde2 a23d 4b32 53bd 8b6e 863d 004c 7dba
00000380: 521a 483d 40e1 81ba 2546 983d 00ac 0bbb
00000390: a0de 023b 2bb1 7dbd 460d 313d 9b60 963d
000003a0: eb82 24bd 2c9e aebc 1324 913d 80aa 7ebd
000003b0: 46e0 203d d82c 5d3c e8f4 85bd ac2c d03c
000003c0: 1a58 693d e623 8cbd 7aba 3c3d 26a4 313d
000003d0: e0d5 053d 3a05 603d 9b91 a83d 345c e83c
000003e0: a8da 0f3c 964e 79bd f121 963d 0081 c03c
000003f0: c5de 813d 0ad4 383d 0065 97bb f281 673d
